Models/model-movenet.tflite (tflite, 64584 bytes, 6 tensors)

dense_9/bias f4 [64]
00000000: a7dd 27bd 9c42 0e3d 9440 cc3d 0389 403d
00000010: b1f6 3b3d b126 563d c056 c83d 1f33 643d
00000020: 627b 213d a912 cbbc e0cf 913d ee1f de3d
00000030: b68e 2e3d e80a a13c a723 863d dd4e 7c3c
00000040: d320 de3c f62a 173d 1aa1 6a3d f287 c23d
00000050: dbff 6f3d c300 b93d 4dd4 833d 90fe 173d
00000060: 5240 b13d 530f 103d a793 c03c cd9a 8a3d
00000070: 44d6 b43c b29a a93d 850c a23d 29bb 15bc
00000080: e9e4 3c3d 226b 823c dcec 6e3d 1dca 223d
00000090: 4f26 443d 43c3 f93d 8135 7c3d 97a3 233c
000000a0: 0298 6c3d a20b 8f3c e046 0e3d 88ba 1f3d
000000b0: 4663 043d 8419 ce3c 4632 243d bbfc fa3c
000000c0: 0396 9b3d 26fd 8e3d b699 013d 6b19 033d
000000d0: 067e 983d 4c5a 263d c186 133c 1ac1 2d3d
000000e0: 407b f93c 47c2 aa3d 947b 713d f230 3d3d
000000f0: 4a09 903d 40eb 203d bb72 823d 0542 653c
-0.04098287 0.034731492 0.09973255 0.047005665 0.04588956 0.052282993 0.09782171 0.055712815
0.039424308 -0.024789171 0.07119727 0.10845934 0.04261657 0.01965852 0.06549769 0.015399662
0.027115261 0.036906205 0.057282545 0.09498586 0.058593612 0.090333484 0.064369775 0.037108004
0.08654846 0.035170864 0.023507906 0.06767807 0.022074826 0.08281459 0.07912544 -0.009138861
0.046116743 0.015920226 0.058331355 0.03974353 0.047888096 0.12195446 0.061574463 0.009987733
0.057762153 0.017461602 0.03473556 0.03899625 0.032321237 0.025158651 0.040087007 0.03063809
0.07596972 0.06981878 0.03164073 0.032006662 0.07445912 0.040613458 0.009004296 0.042420484
0.030454278 0.08337837 0.058955744 0.046189256 0.07033022 0.039286852 0.06369539 0.013992791

dense_8/bias f4 [128]
00000000: 0170 213d 4a37 003c 1121 74bc 7e81 0e3d
00000010: 2fb8 4cbc 17ed b53c e0d3 0d3b 41e6 f6bc
00000020: 883a 2a3b 5788 33bc 18a4 c7b9 f077 20bd
00000030: 8961 02bc b4b9 3abd aa95 03bd 1505 95bc
00000040: e322 45bc b42f 973d 0731 d6bc 22ce 773a
00000050: 18ec acbc cec8 f33c ce21 423d d145 e93b
00000060: b532 59ba 7960 563d 13eb 13ba 2b75 47bd
00000070: f1c6 283d a645 a8bb bc6f 083b a552 3cbc
00000080: 7f6f 54bd 4306 ccbc 0ba4 9bbc 5fae b3ba
00000090: ad29 24bc d92b 3abd 99f7 9dbb eb1d 383d
000000a0: c785 853b c099 353d 5921 77bc adb6 d43a
000000b0: 3e47 bdbc 8a82 7b3d 1a82 013d 8ede a2bc
000000c0: f2ef c4bc 0227 8fbc ff23 0dbd 2843 4dbd
000000d0: e4ce 7a3b e150 9ebc 72c0 35bd de8b 333d
000000e0: 5b1c 103d 7983 eebc 4968 a33a 1028 01bd
000000f0: 5649 0e3b 7cf9 ed3c b9bf 2f3d 35af d5bb
00000100: 8be8 593c 887b 61bc a84d 453d 34de 0dbd
00000110: 76c9 01bd 1ae8 6bbc 51ea db3c 55fe dc3c
00000120: 5c07 37bd 0d7c 523b 5245 2b3d a596 593c
00000130: 4698 06bd afe2 743d 6c55 03bd 3da9 e63c
00000140: c415 32bc 0f9f 113c 9363 55bc f067 11bc
00000150: 3f0c cdbb dd7f afbc fc78 21bd 0f1b ebbc
00000160: 8a42 60bd c02f 2e3c 649f c6bc 7535 2ebd
00000170: fe18 b6bc 32d8 1ebc 4947 6e3c 6d4b babc
00000180: dea9 843c aebc 113c e001 d33b 3b04 1f3d
00000190: ddd4 083b f010 91bb db3d 06bd b7c7 26bd
000001a0: 97ae e5bc d3d3 f53b 13c8 e9bc 47da 993c
000001b0: 2851 d0bb 38f0 b7bc 04c8 28bd 8223 49bd
000001c0: 0385 043d c3a2 813d 0a8f 86bc 3e3c ecb9
000001d0: b751 5cbb 00f0 43bd 9769 35bd 8e46 e3bc
000001e0: 2779 293d a841 d93a 42fa a6bc ef5b 0abc
000001f0: aec0 10bb 1656 9a3b fd8f 17bd 20bc a837
0.039413456 0.007825682 -0.014900462 0.034791462 -0.012495085 0.02220778 0.002164118 -0.03013909
0.0025974829 -0.010957799 -0.00038078497 -0.03917688 -0.0079578245 -0.045587257 -0.032125153 -0.0181909
-0.012032243 0.073821455 -0.026146425 0.00094530184 -0.021108672 0.029758837 0.04739552 0.0071189185
-0.0008285449 0.052338097 -0.0005642634 -0.048695724 0.04120535 -0.005135256 0.0020818552 -0.011494313
-0.051864143 -0.02490533 -0.01899912 -0.0013708583 -0.010019702 -0.045451973 -0.0048207757 0.044950407
0.0040747854 0.04433608 -0.015083634 0.0016228758 -0.02310526 0.06140379 0.031618215 -0.019881513
-0.024040196 -0.017474655 -0.034458157 -0.050112873 0.003827029 -0.019325675 -0.044372983 0.04383456
0.035183292 -0.029115425 0.0012466992 -0.031532347 0.0021711192 0.029049627 0.04290745 -0.0065211304
0.0133000715 -0.013762362 0.048169762 -0.034635738 -0.03168627 -0.014398599 0.02684513 0.026976744
-0.044684753 0.0032117397 0.041814156 0.013280545 -0.032860063 0.059786495 -0.032063887 0.028156871
-0.010869447 0.00888802 -0.013024229 -0.008874878 -0.0062575634 -0.021423275 -0.03942202 -0.028699426
-0.054750957 0.010631502 -0.024245925 -0.04253145 -0.022228714 -0.0096951 0.014543363 -0.022741044
0.01619428 0.008895082 0.0064394325 0.038822394 0.002087883 -0.004427068 -0.032773834 -0.040717807
-0.028037352 0.007502058 -0.028537786 0.01878084 -0.006357331 -0.022453412 -0.041206375 -0.04910613
0.032353412 0.063298725 -0.016425628 -0.00045058312 -0.0033618042 -0.047836304 -0.04429015 -0.027743604
0.041375306 0.0016575353 -0.020383004 -0.00844477 -0.0022087502 0.0047099693 -0.037002552 2.0114763e-05

dense_10/bias f4 [2]
00000000: 23b2 94bc 27b2 943c
-0.018151348 0.018151356

pushupdetector/dense_8/MatMul f4 [128, 34]
00000000: 7962 933e e6e2 57be e130 d63d 37bb 53be
00000010: 72c8 cabc f553 b3bd 2ce0 9a3e 5fb3 193e
00000020: b858 743e dbe5 ac3d d9a6 4f3d d89c 39bb
00000030: 47a5 7d3e 41e5 bc3d 5f1c f4be 365b f13d
00000040: e693 cabe aac8 14be 6c23 8cbe 5850 81bc
00000050: bda3 9ebe 8483 4bbe c978 da3d 773a ddbd
00000060: 2a66 c5bd 072c 8fbd 2954 1fbd 8b46 433d
00000070: d9f0 8dbd 313b ef3c 5bb5 2e3d 4d8f c4bb
00000080: a2ca 233e 3e4e 85bd e842 c53d 5cb1 283e
00000090: 8cc1 6abe 2278 623d 2bed 633d c16b d1bc
000000a0: 751f 82be b96d 42be d77a 05be 7fda 233e
000000b0: 24b0 65be 0b80 e5bd 7e25 0cbc 8250 1c3d
000000c0: e9d4 cb3e 2f76 d0bc 4a6f 85bd 16cb 4e3e
000000d0: c51f 9d3e d662 473e db7a 03be 7728 dcbd
000000e0: e1ba 81bd f6fa 04be 7d0c 43bc a6a3 23be
000000f0: 13af 9b3e 7bad 823d b177 923d 50e0 38bc
00000100: 9efe 04be 45d3 17bd 950c c43d 4aa6 12bc
00000110: a56d 343e 54fa 233e 5cdc 853c 16ef 1cbe
00000120: 5433 3d3d e273 13be 3921 3d3d 49fd cfbd
00000130: fcff 29bc 8f34 a7bd 6ec7 4c3e a3b1 8a3d
00000140: 0779 493e 16c9 26bc 11d6 a13d 1456 663d
00000150: 4461 83be 3ec2 183d 39d3 fb3c 76ec 01be
00000160: 9d1a c43d f357 c13d 61fe ac3c 1e9e 523e
00000170: 1f11 40be e11d 93bb d33c 1abe fb20 b63d
00000180: dc4c 913d 0061 303d d0f0 2bbd a3cc bfbd
00000190: 0b73 81bd b40b 423e 1a03 473d ad96 88bd
000001a0: fb16 683e 1272 47bd eacf 91bd d2b1 123e
000001b0: 7939 8a3d 0f66 dcbd 1a27 b23d 654c 7abd
000001c0: 8622 a33d 7e41 133c 97ff fabd 8f45 edbd
000001d0: adcc b1be 7175 7f3e 67c3 b0be b355 2abe
000001e0: 25c8 80be e147 183e 5752 c23c 4164 6b3e
000001f0: bc21 babe 87d5 753e 0c13 48bc 56d0 b83d
00000200: 5bf4 0dbe 99e6 b7bd 8f69 38be 4db8 f0bd
00000210: cbef f0bd 1a81 1fbc 7778 3a3c ce83 3a3e
00000220: 0b18 b93d 1954 81bd 1b99 ea3d 2b7d fcbd
00000230: e749 a1bd eefa 073d a057 803e a072 9bbd
00000240: 6260 0c3e cfb8 a23d 0233 dabc 2544 093e
00000250: a40c 8bbd b132 353e 4a5b 9a3d 3665 4b3d
00000260: 7dbd e13d 3a95 203e 1402 233e 64b8 b5bd
00000270: a470 bf3c 7edf 4bbe 7721 f4bc 595a 8b3d
00000280: f1cd 3f3e 339d 27be 3771 dd3d a229 0ebe
00000290: 310a b83d fcf3 31be d2cb d53d b0ca 1fbd
000002a0: ba5e febd 9810 cebd 7ba7 633e 2939 063e
000002b0: e193 9a3e a245 0b3e 7ea0 063d 08ef 00bd
000002c0: 522c 073d 7a0e 1cbe db09 be3d 8b12 c23d
000002d0: cdb0 10be bb12 1a3e 3ad1 833e f6e6 3f3e
000002e0: ccf7 13bf bd43 00be 8e5e 64be 0e90 8dbe
000002f0: 552a debe 0a3e c83d a48e 39be 96c1 69bd
00000300: dab2 fb3a 8dfa f5bc 0bff 743e 22e7 8bbe
00000310: 23d0 d1bd 94b4 edbd 2654 75be a159 123e
00000320: 2020 9bbd 5743 a2bd d6bf 34be e07e 4ebe
00000330: 02fa d73d 8426 cdbc 3f50 563e be3f 5e3e
00000340: 51e9 233d 4977 fb3d 30b9 943d 3f3f ef3b
00000350: 5c79 563c 750d f83d cb79 9bbd de1d 653e
00000360: f0ae 043e a291 27be 2409 01bf d025 ff3c
00000370: 248b cdbd cd58 7fbe c541 cebe 3c7a d6bc
00000380: f89d 58be 4f0b 0bbe baad 16be db7c 34bd
00000390: 12f0 6f3e e639 fcbd 64b7 7fbe 3de1 aa3d
000003a0: a7ec 8bbe cc80 3ebe 0657 1ebe 37e1 65bd
000003b0: 9a9e 003e 9268 d9bd 08fa 81be 6343 46bd
000003c0: 9075 24be f9c8 513e f05c 43be 3ddb 88bc
000003d0: 5b4d 2a3e 698a d8bc c773 27be 5e53 fb3c
000003e0: 6b5f 9abc 74d1 08bd c18f 1dbe b0a6 cdbd
000003f0: d3f0 dd3d 9754 61be ff40 4d3e ec4f 92bd
0.28786066 -0.21082649 0.10458542 -0.20676886 -0.024753783 -0.08756248 0.30249155 0.15009831
0.23861969 0.08442279 0.050696228 -0.0028322246 0.2477008 0.09223414 -0.47677895 0.11784975
-0.39565963 -0.14529672 -0.27370775 -0.015785381 -0.30984297 -0.19874388 0.10667569 -0.10802167
-0.09638627 -0.069908194 -0.03889862 0.047674697 -0.06930704 0.02920303 0.042653423 -0.005998528
0.15995267 -0.06509064 0.09631902 0.16473907 -0.22925395 0.05529035 0.055646103 -0.025564076
-0.25414625 -0.18987168 -0.13035141 0.16001318 -0.22430474 -0.11206063 -0.008553861 0.038162716
0.39810875 -0.02544698 -0.06515367 0.20194659 0.306883 0.19471297 -0.12839834 -0.107499056
-0.063344724 -0.12986359 -0.011904833 -0.15980396 0.3040701 0.06380745 0.071517356 -0.011283949
-0.12987754 -0.037066717 0.09572712 -0.008950779 0.17619951 0.16013461 0.016340427 -0.15325579
0.04619153 -0.14399675 0.04617426 -0.10155732 -0.010375973 -0.08164322 0.19997951 0.06772163
0.19675075 -0.010179779 0.07902158 0.056234434 -0.25660145 0.03729462 0.030740367 -0.12687859
0.095753886 0.09440603 0.021117391 0.2056813 -0.18756531 -0.004489646 -0.15062265 0.08893009
0.07094738 0.043061256 -0.041977704 -0.09365203 -0.06320771 0.18949777 0.048586942 -0.06669364
0.22665016 -0.04869277 -0.071197346 0.14325646 0.06749243 -0.10761654 0.08698864 -0.06110801
0.07965569 0.0089877825 -0.12255781 -0.11585533 -0.34726468 0.24947144 -0.3452408 -0.16634254
-0.25152698 0.1487117 0.023720903 0.22987463 -0.36353862 0.24007235 -0.012211572 0.09024112
-0.13862745 -0.0897953 -0.18009017 -0.117539026 -0.11764487 -0.00973537 0.01138126 0.18214342
0.09037789 -0.063148685 0.11454984 -0.123285614 -0.07875424 0.03319829 0.25066853 -0.07590222
0.13708642 0.07945406 -0.02663565 0.13404901 -0.067895204 0.17695118 0.07536943 0.04965707
0.1102247 0.15681925 0.15918761 -0.0887306 0.02336914 -0.19909474 -0.029801114 0.06804342
0.18730904 -0.1636856 0.1081261 -0.13883069 0.08986319 -0.17378229 0.10439266 -0.039011657
-0.124204114 -0.10061759 0.22231857 0.13107742 0.30190948 0.13600782 0.0328679 -0.031477958
0.03300125 -0.15239897 0.092792235 0.09476193 -0.14129944 0.15046208 0.25745565 0.18740448
-0.57799983 -0.1252584 -0.22301695 -0.27648968 -0.43391672 0.09777458 -0.1812082 -0.057069384
0.0019203082 -0.030026698 0.23925416 -0.27324778 -0.10244777 -0.11606708 -0.23957881 0.14292003
-0.07574487 -0.07923 -0.17651305 -0.20165586 0.10545732 -0.02504278 0.20929049 0.21704003
0.04001743 0.12278611 0.07261884 0.0073012407 0.013090458 0.12111942 -0.075915895 0.22374675
0.12957358 -0.16364148 -0.5040457 0.03114596 -0.100363046 -0.24936219 -0.40284553 -0.026181333
-0.2115401 -0.13578533 -0.14714709 -0.044064384 0.23431423 -0.12315731 -0.24972302 0.08343742
-0.2732899 -0.1860382 -0.15462884 -0.056122985 0.12560502 -0.10615648 -0.2538607 -0.04840411
-0.16060472 0.20486821 -0.19078422 -0.016706103 0.16631071 -0.026433187 -0.1635276 0.030679401
-0.018844327 -0.033402875 -0.15386869 -0.10041559 0.10836949 -0.22004925 0.20044325 -0.0714415

pushupdetector/dense_9/MatMul f4 [64, 128]
00000000: 0d9b a5bd e2a5 693a f56f 2dbd 3625 fb3d
00000010: ff08 f33d feb2 f9bd 32ff 7e3d a3b3 a4bd
00000020: 2b3e 8a3b 587f 3abe 940a 2abe a68b 2cbe
00000030: 6052 0abe 186f 24be 06ab 05bd 4fb4 4c3c
00000040: e2df 93bc 96e4 4ebd a77f 103e 3636 17be
00000050: 5bee e73d a648 90bc 9efb d9bd 4c67 823d
00000060: c7df 383e 595e 9abc ef21 10be b556 dfbd
00000070: b4a3 bdbd 9528 683d 6a5b 1cbe 839d df3c
00000080: b1d3 843d 5ee3 32be 9321 30bd 79cb 203c
00000090: bc33 823d be01 e9bd 67a0 a93d 17b1 533c
000000a0: 949f 4bbe c24a 0abe 0c6f 2d3d 597e 23be
000000b0: f6ce a83d 8ef2 623c 74cd 20be 74ff 573d
000000c0: 3fcf f8bc a8ff 843d c790 b9bd 5bd2 973d
000000d0: 177c 083e 29cb 00be 5d5e c53c 7c63 b6bd
000000e0: 00a6 74bc dbc2 08be 4dcd b8bd d33b 6ebd
000000f0: c77d e8bc f766 14be ffe1 9d3d 6d41 9e3d
00000100: 5ca3 90bb e3de 3dbe 62f9 4abe 3f1a 493d
00000110: 5ba2 0f3e d665 153d 0898 9ebd 6240 eebc
00000120: 0d83 97bd abd9 debd 1df1 da3d 6efd adbb
00000130: 11ac c23b bc77 0ebe 07c8 e3ba 37be f6bd
00000140: 0b7f 30be b0f7 d4bd 2f67 1ebe 96ad 1bbe
00000150: 4d22 9dbd 6509 ba3d 38a4 e5bd ddd7 783d
00000160: 787c 6bbd bdae 2ebe 14ca 41bd 2d86 f93d
00000170: b159 09bd 25a4 853d e558 f8bd 97ce 1a3e
00000180: 1e0d 0cbe cb8d b4bd 7b95 32be 77d4 7a3d
00000190: 7205 abbd 3e5e c33d 8d09 dcbc 7814 043e
000001a0: c992 b6bd 25a4 a93d add6 10be b0b0 903d
000001b0: 6f60 92bd 6561 37be b6f8 f43d d5c7 d9bd
000001c0: dfd7 20be 2726 6e3d 5082 a03d 54b7 013e
000001d0: 8184 903d 965b 11be 39fc 14be 70fa 723c
000001e0: 02f2 ff3d a094 01be 6429 8ebd 88d2 b33d
000001f0: 4bba 95bc ec4a 3bbe 22f3 3f3d 8df8 033e
00000200: 4640 82be 4400 f8bc 7809 1c3e 8e12 3dbe
00000210: 9352 88bd de7f 72be 6e88 ecbc 2ab1 f43d
00000220: 21ad c0bd ddbc 98bd 35cf d8b8 dfd3 d23d
00000230: c6fa 42be 980c 1e3e 197f 3c3e 85bb 46be
00000240: 5c2c ae3d 1785 e9bd 4317 a83d 395a 8abd
00000250: ccca 4dbe b078 39be da34 96be 958e 20bd
00000260: 6d82 d73c 5bfc aabe 8d53 2ebe d672 8b3c
00000270: 1c76 8abe 1845 2ebe c4aa 333e 2d4b 173d
00000280: 1c90 273e cb11 553e a149 33be 549c 743e
00000290: f2da 3b3e 942c bebd 6559 e13c 6368 35bd
000002a0: 2470 acbe 8219 10bd 8774 9d3d 91c2 1abe
000002b0: 3293 ed3c 70ca 50be 658f aabd 4fe3 503e
000002c0: 1856 13be 8699 36be f9cb 0d3e c69f 353e
000002d0: fc55 26be ffdf da3b fc12 833e 57f3 85bd
000002e0: 8afe 753c 5ba0 54be c69d d23c 1db9 e4bc
000002f0: cfb4 76bc 91f2 8f3d 3282 7cbe 469d 2f3e
00000300: 07aa 803d f8b2 333b 1c75 e0bd 6dd1 9b3c
00000310: 6dac e23b 765b 57bc 37e3 0f3e 0cfe 63be
00000320: a5a9 b43c 0bc8 063d cd5c 99be 134e fa3c
00000330: aa70 263e 6e82 ebbd e215 4b3e ef43 273d
00000340: 3854 d6bd 9d47 09be 19ec 6b3d b145 7ebd
00000350: 9bd8 ab3d a331 2a3e 0e7a 353e b66b 0b3d
00000360: 5012 e4bd 872e 85be 8c14 173e 152b d83d
00000370: ce19 003e 70fb 893d 8e9b b4bd a368 a83d
00000380: 7c30 40bc f0ad b6bd ad76 ae3d 7a82 cbbc
00000390: 5c11 5dbd e69e f3bd bddb 713e fa65 cd3d
000003a0: 115f bf3d 4b49 a0bc e6ff 6abd 4043 283e
000003b0: e647 0fbe 8fc8 27bd 6a54 d13d a858 8e3e
000003c0: 2a33 483d 8757 89be 0ef0 1d3e d501 153e
000003d0: cf0c f3bd d26f 17be 0224 033e c225 ea3d
000003e0: c23c 38be 3881 70be 745e ccbd 33a6 eb3b
000003f0: 26c8 64be c3d8 53bd 72d4 2c3e 481f a7bd
-0.08086214 0.0008912963 -0.0423431 0.12262957 0.1186695 -0.12192343 0.062255092 -0.080420755
0.004218837 -0.1821264 -0.16605598 -0.16850147 -0.13507986 -0.16058004 -0.032633804 0.012494161
-0.018051092 -0.050510965 0.14111196 -0.14766774 0.113247596 -0.017612766 -0.10643695 0.063673586
0.18054114 -0.018843817 -0.14075445 -0.1090521 -0.092597395 0.056679327 -0.15269247 0.027296787
0.064856894 -0.17469546 -0.04300077 0.009814137 0.06357524 -0.113772854 0.082825474 0.0129206395
-0.19885093 -0.1350508 0.04234223 -0.15966167 0.082426 0.013851775 -0.15703374 0.052733853
-0.03037226 0.06494075 -0.09060817 0.07413169 0.13328587 -0.125775 0.024092847 -0.08905694
-0.014932156 -0.13355581 -0.09023533 -0.05816252 -0.028380288 -0.14492403 0.07709121 0.07727323
-0.004414005 -0.18542056 -0.19821694 0.049097296 0.14026777 0.03647407 -0.077438414 -0.029083434
-0.07398043 -0.108813606 0.1069052 -0.005309752 0.005940922 -0.13912863 -0.0017378338 -0.12047999
-0.17235963 -0.10398805 -0.15469049 -0.15202937 -0.07672558 0.09083823 -0.11212963 0.06075274
-0.05749175 -0.17058845 -0.047311857 0.12183795 -0.033532802 0.06525449 -0.1212633 0.1511787
-0.13676879 -0.08816107 -0.17439835 0.06123778 -0.08350648 0.0953946 -0.026860023 0.12898433
-0.08914716 0.08283261 -0.14144392 0.070649505 -0.071472995 -0.17908247 0.119615 -0.10633818
-0.15707348 0.058141854 0.07837355 0.1266759 0.07056523 -0.14195094 -0.1454934 0.014830217
0.12497331 -0.12654352 -0.069414884 0.0878039 -0.018277308 -0.18290299 0.04686273 0.12887783
-0.25439662 -0.030273564 0.15237987 -0.1846411 -0.06656375 -0.2368159 -0.028873648 0.11947854
-0.09408022 -0.07457898 -0.00010338278 0.102943175 -0.19040975 0.15434492 0.18407859 -0.1940747
0.08504555 -0.11402338 0.08207562 -0.0675549 -0.20096892 -0.18112445 -0.29337198 -0.039198477
0.026307309 -0.33395657 -0.1702406 0.017022531 -0.27043235 -0.17018545 0.1754561 0.036936928
0.16363567 0.20807569 -0.17508556 0.2388776 0.1834524 -0.09285846 0.027508447 -0.044289004
-0.33679307 -0.035180576 0.076882415 -0.15113284 0.029000852 -0.20389724 -0.083281316 0.20399211
-0.14388311 -0.17832002 0.1384734 0.1773673 -0.16243738 0.0066795344 0.2560042 -0.06540554
0.0150143 -0.20764296 0.025709998 -0.0279203 -0.015057757 0.07028688 -0.2465904 0.17149839
0.0628243 0.0027419906 -0.10959837 0.01902076 0.0069175274 -0.013144365 0.1405152 -0.2226488
0.022053549 0.03290562 -0.29953614 0.030554807 0.16253915 -0.11499487 0.19832566 0.04083627
-0.10465282 -0.13406225 0.057598207 -0.06207818 0.083909236 0.16620497 0.17722341 0.034038268
-0.11136305 -0.2601206 0.14753932 0.10555092 0.12509844 0.06737411 -0.08818732 0.08223083
-0.01173031 -0.08919895 0.08518729 -0.02484249 -0.053971633 -0.11895542 0.2361898 0.10029216
0.09344304 -0.019566199 -0.05737295 0.16431904 -0.13992271 -0.040962752 0.10221179 0.27802014
0.04887692 -0.2682459 0.15423605 0.1455148 -0.118676774 -0.1478875 0.12806705 0.11432983
-0.17991927 -0.23486793 -0.09978953 0.0071914434 -0.22341976 -0.051720392 0.16877916 -0.08160263

pushupdetector/dense_10/MatMul f4 [2, 64]
00000000: 16c7 09be 2041 febe c51e c5be 6bea 123f
00000010: acbc bbbe d7aa 98be 6a92 03be 0dda 02bf
00000020: 91c5 cc3d 0a29 863e d4e3 e8be e428 5abe
00000030: 88fd c53e 2512 ea3e d747 673d 0e50 0b3f
00000040: a549 0e3f 7746 053f 9247 d1be f985 e0be
00000050: 7bf9 babe 1ac7 0cbf c75d ae3d ef68 483e
00000060: 8662 cabe 2905 573e 1d55 ab3e 9d0d f5be
00000070: 9cd7 093f 942b a7be ba88 01be 9ec0 ad3c
00000080: 6859 e23e f6cd fb3e 8da3 a7be 4b33 2c3e
00000090: 89d9 54be c428 94be e7e9 1fbe c78e 043f
000000a0: cf45 8abe e20c 033f 1534 ea3e 949f f53e
000000b0: a4ea d13e c2b2 003f 4f61 be3e 4888 643d
000000c0: d7c1 b6be 87db 05bf f85d 143f 6dfc 99be
000000d0: 5de7 7abe ee36 4c3e e4d4 123f ba1f c93d
000000e0: b209 b13e df8d 20be 1613 f0be d60e da3e
000000f0: 2736 2bbe 9799 d23e 58da 81be 25ab 503e
00000100: c120 76be 25c2 e73e ee3b 443e e452 08bf
00000110: cf2e f43d 4387 e53e a2f1 cf3e 0710 033f
00000120: 1b1b 06bf aa00 5a3e 1f0c 8a3e 7deb dd3e
00000130: a696 9fbe b367 05bf 0c01 19bf 1f9d bfbe
00000140: 9944 15be b2f1 8fbe ecc3 913d abb9 2c3d
00000150: 7bbd bd3e a2eb fe3d 6bea 20bf 6024 eabe
00000160: bc24 b63e a4d9 c8be e2a8 9dbe 25a8 973e
00000170: 3825 99be ff34 063f c762 8a3e 65d9 ea3c
00000180: 9880 99be cbfb 92be eee3 e33e f609 05bf
00000190: 1a5b d73e 1088 903e 1683 c03e 6cd4 b4be
000001a0: 9262 4e3e 90af 9abe 66f3 e7bd 0c60 0abe
000001b0: ecf7 a8bd f6e8 f1be 1ff9 a1be 3c82 17bf
000001c0: 434e 763e 6c65 8d3e 07f5 d9be e1b5 02be
000001d0: 1c09 e03e 83bb d2be 4d76 2ebd fd1a 12bf
000001e0: c380 6fbe 5857 ec3e 8c23 fe3e 7170 cfbe
000001f0: 7fea 063f bc3d 04bf c7ae f03e aafa cbbe
-0.13454852 -0.4965906 -0.38500038 0.57388943 -0.36667383 -0.2981784 -0.12848821 -0.5111397
0.0999862 0.26203185 -0.4548632 -0.21304661 0.38669991 0.45716968 0.056464996 0.5441903
0.5558112 0.52060646 -0.40874916 -0.43852213 -0.36518463 -0.54991305 0.0851398 0.19571279
-0.39528292 0.20998062 0.33463374 -0.4786195 0.5384462 -0.32650435 -0.12649813 0.021210011
0.44208837 0.49180573 -0.32741967 0.16816442 -0.20786108 -0.28937352 -0.1561657 0.5178036
-0.27006385 0.5119153 0.4574286 0.4797331 0.4099933 0.5027276 0.37183616 0.05579403
-0.35694763 -0.522881 0.57955885 -0.30075398 -0.2450232 0.19942829 0.57356095 0.098205045
0.3457771 -0.1567912 -0.4688956 0.42589444 -0.16719876 0.41132805 -0.25361896 0.20377786
-0.24035932 0.45265308 0.19163486 -0.5325148 0.119229905 0.4482976 0.4061404 0.5119633
-0.5238511 0.21289316 0.26962373 0.43343726 -0.31169623 -0.5211136 -0.5976722 -0.3742456
-0.14576949 -0.28114086 0.07117447 0.042169254 0.37058625 0.12447287 -0.62857693 -0.45730877
0.355749 -0.39228547 -0.3079291 0.29620472 -0.29911208 0.52424616 0.27028486 0.028668115
-0.29980922 -0.28707728 0.44509834 -0.51968324 0.42061692 0.28228807 0.3760001 -0.35318315
0.20154789 -0.3021207 -0.113257214 -0.13513201 -0.08250412 -0.47248048 -0.31635377 -0.59183097
0.24053292 0.2761644 -0.42569754 -0.12764694 0.4375695 -0.41158685 -0.04259329 -0.5707243
-0.23388962 0.46160388 0.49636495 -0.40515473 0.5270156 -0.516567 0.47008345 -0.3983968
