Models/pushup-model-30may22.tflite (tflite, 64888 bytes, 6 tensors)

dense_23/bias f4 [3]
00000000: 18d4 51bf 7cc4 fc3e 0b94 a93e
-0.81964254 0.49368656 0.3312076

dense_22/bias f4 [64]
00000000: 3bae 4f3d ce76 b9bc b0dd d0bc e30e e83c
00000010: cd39 5e3d 3734 413e 604f 0b3e de6c 2f3e
00000020: b1b9 353d 8b23 a43d 5a79 8f3d a7c2 863d
00000030: 2676 6c3d 5acd 9f3d 439e 96bb 14e0 9c3b
00000040: faa4 af3d 4991 ae3d 05a9 be3d 77dd ea3d
00000050: c551 2f3e 67ae 513e c50b 393e ea58 e63d
00000060: 1cd3 ad3d 57ea 293e 2ca1 833d 9354 4e3d
00000070: 2b13 5dbd ce9a 7c3d 6a82 b53d 2a7d a63c
00000080: 0e42 55bc f71c 173e 5bfb d83c ce3c 473d
00000090: b39a 023d 356d c1bc 9a68 003d f61e 5a3d
000000a0: 5f6a 9b3c 947e da3d 0c51 b53d 1ba3 323e
000000b0: d41c 3abd e132 0c3c 8f5b 193e e144 063e
000000c0: 34d5 893d a186 173e e9c8 443d a3ee 0e3e
000000d0: 4888 403e c738 d63d 7de7 fc3d 08a8 8c3d
000000e0: deda 913d a498 af3d 6b87 fc3d 714d fa3b
000000f0: e8a7 ce3d 9391 143e a3ed 563d d6fe f43c
0.05070327 -0.022639658 -0.025496334 0.028327411 0.054254342 0.18867575 0.13604498 0.17131373
0.044366542 0.08014592 0.07005568 0.06580096 0.057729863 0.078028396 -0.004596503 0.0047874544
0.08576389 0.08523805 0.09309582 0.11468022 0.17121036 0.20476685 0.18070896 0.11247428
0.084875315 0.165933 0.064272255 0.050373625 -0.053973358 0.06167107 0.08862765 0.020323355
-0.013016237 0.14757143 0.026487043 0.048641972 0.031885814 -0.023611644 0.031349756 0.053252183
0.01897162 0.10668674 0.08853349 0.17445032 -0.04543765 0.008557052 0.14976333 0.13112213
0.067301184 0.1479745 0.048043165 0.1395822 0.18801987 0.10460048 0.123488404 0.06867987
0.07121824 0.08574036 0.123305164 0.0076386263 0.10090619 0.14508657 0.05247272 0.029906671

dense_21/bias f4 [128]
00000000: 3d52 d1bd b37c 1cbd 7176 20bd c53d 54bd
00000010: 1779 8dba 11a8 83bd d987 88bd 2311 f7bc
00000020: f5d5 4cbd a5a6 f9bd 24d1 de3b d9eb 3bbd
00000030: 1369 f03c c703 dabc 6eb4 1abe d94e 3e3b
00000040: 89f0 eebc bcba 3a3d 4c4f 64bd e6dd 46bd
00000050: 7787 d0bd 46fa 2b3a 2b8d 24bd 4d2b 6d3d
00000060: cba4 47bd 40c3 d6bb 0c3d 1ebd bcc2 d03a
00000070: 8520 e2bd 4635 743b 6bc0 55bd c475 a1bd
00000080: 2996 abbc 0fdd 97bd a611 dabd f5d8 19bd
00000090: 5b8f 65bc 4f95 cfbc dd9b 39bd c3ab bfbd
000000a0: b356 2dbc 7736 81bc f4d9 2f3c 77ef 8abc
000000b0: 7dad 46bd 3bf7 603c 5d77 a4ba debe 6abd
000000c0: 891c 593c 2c6b eebd 4420 94bd cc9d 1cbe
000000d0: 9e0a 10be ad89 833d 63a8 eb3c 5ccb 64bd
000000e0: 1883 efbc 0ba0 253c e5f5 4dbd 36fb 1d3b
000000f0: 6768 8abc 154f cabc 0143 e3bc 14cf debc
00000100: 3dca 7abd 1384 41bc b8e7 59bd d42a 26bd
00000110: c797 88bd 8198 8dbd 4c8a 89bd 67f6 3dbd
00000120: 1083 95bd fbaf c2bd 6dde 07bd 7b80 fdbc
00000130: 714d 02bd 364d 20bd 64e7 04bd 30ec 88bd
00000140: 5e60 3e3d ed4e 88bc 46c9 4ebd 91ab 7fbc
00000150: 2e4e 4dbd 40a2 94bd 20fc 76bd 2275 57bd
00000160: bba5 e3bd 675b cbbd c1c6 283d 652c 00bd
00000170: d438 d6bd 3586 943c 8da3 aebd 519a 23bd
00000180: d948 223b 4612 c2bc 410d 02bd 9e7c c4bd
00000190: 233c ff3c 8e9a aabd fd70 91bd 1284 2abd
000001a0: 0b51 eabc a5d3 9abd 4fec c5bd 0087 693c
000001b0: 7008 37bd f243 543d ff0f 8dbd a0ea 4dbd
000001c0: 7640 a2bc 1110 99bd 9914 3ebd 7b84 8cbc
000001d0: c33d 63bc 7add 5ebd 7c5c 3cbd c2e5 8cbd
000001e0: c1c8 6dbd 148c c9bd 6547 efbc 39c6 96bd
000001f0: 9741 83bd a65d c5bd 91df 113d 55bf aabd
-0.10220764 -0.03820486 -0.039175455 -0.05181672 -0.0010793534 -0.064285405 -0.06666536 -0.030159539
-0.050008733 -0.12189988 0.006799834 -0.04587922 0.029346978 -0.02661313 -0.15107891 0.0029038696
-0.02916743 0.04558824 -0.055739686 -0.048551463 -0.10182088 0.0006560426 -0.04017369 0.057902623
-0.048741143 -0.0065540373 -0.038632438 0.0015927176 -0.11041359 0.0037263199 -0.052185457 -0.0788379
-0.020945625 -0.074152105 -0.106478974 -0.037560422 -0.014011229 -0.02533975 -0.04531466 -0.09358933
-0.010579753 -0.015773041 0.010733116 -0.016959889 -0.048505295 0.013730819 -0.001254778 -0.05731093
0.013251432 -0.11641535 -0.07232717 -0.1529457 -0.1406655 0.06422744 0.028766816 -0.055858
-0.029237315 0.010108958 -0.05028333 0.0024106032 -0.016895486 -0.024695912 -0.02774191 -0.027198352
-0.061228026 -0.011811274 -0.0531995 -0.040568188 -0.06669574 -0.069138534 -0.06715831 -0.046377566
-0.07300389 -0.09506222 -0.033171106 -0.030945053 -0.031812135 -0.039136134 -0.032447234 -0.06685674
0.04647862 -0.016639197 -0.050484918 -0.015604869 -0.050123386 -0.07257509 -0.06029904 -0.05260194
-0.11115595 -0.09929543 0.04120517 -0.031292338 -0.10460058 0.018130401 -0.085272886 -0.03994209
0.002476266 -0.023690354 -0.03175092 -0.09594081 0.031156605 -0.0833026 -0.07101629 -0.04162986
-0.028603097 -0.07559899 -0.09664213 0.014253378 -0.04468578 0.05182261 -0.06887817 -0.050272584
-0.019806128 -0.074737675 -0.046406362 -0.017153015 -0.013869706 -0.054410435 -0.045986637 -0.0687976
-0.058052782 -0.09841171 -0.029208848 -0.07362027 -0.06408995 -0.09637003 0.0356136 -0.08337275

pushupdetector/dense_21/MatMul f4 [128, 34]
00000000: 8086 7d3c bd54 3e3e 9c26 6b3e 18b1 073e
00000010: 3b59 543e 2d62 8d3e eccb abbe a16b 30be
00000020: b9d9 62be 204a 363e 2182 c23d 3b88 f83c
00000030: 811d 84bc 7559 bb3e c806 92bd 8c7a 4ebd
00000040: 220c 7a3d c013 273e 7fe2 1d3d 3a66 07be
00000050: 2468 9d39 7596 333e 591f 24be ce37 87bd
00000060: 8792 5e3e e704 e5bd 8b2b ef3d ca20 a9be
00000070: da49 963e 08a3 93be 633e 853e 3b4b 2cbe
00000080: febd c13d 02f6 a9be a53e 3b3e 2e92 4cbe
00000090: 3afb 093d 6489 4d3d b706 363c 794e a5be
000000a0: dfcd 42bc ff17 42be 1e4d a4bd 1d64 b8be
000000b0: 1dc6 57bd 4a9e 10bb 18ce 27be 91ea 16bf
000000c0: cef1 b4be 0291 2e3f e954 243e 9ce6 f43d
000000d0: 5ccd 8bbe 4c34 4e3d e979 7fbc 3a4d 0ebd
000000e0: fa25 2a3e 00e6 ba3e 53f9 853c ae78 fabe
000000f0: 89ab 9cbe 5011 d63e 0e81 673d 505a 7d3e
00000100: 24fa 2fbe 934b 2f3e e87a 873d a1dd 9ebb
00000110: 6748 8fbe 9710 69be ff05 1fbe a1de 20be
00000120: dfeb 093c 8b68 623c ac78 00bd c91d 2cbe
00000130: bdce 793d baf8 2dbd fb0f 62be cd9a e0be
00000140: b7a4 333e fcf2 ff3c e0cf b0be 23f8 ddbe
00000150: 8092 41bd 125a 503e e808 863e 80c0 debd
00000160: 851e 8ebe e3d5 563e a49d 8fbe bf77 b6be
00000170: b0cf 883e 0412 c93e b37d 77bd 98d1 dfbe
00000180: 8462 0a3f fb95 2cbe 29f1 af3e acf0 30be
00000190: 9542 cdbd 2163 d8bd 82a1 933e 4e84 e6bd
000001a0: 6947 d33e 03c2 a23e eaa0 da3e 9722 793e
000001b0: 1830 d73d 3674 9bbd 3fe8 3abd 1b3e aabe
000001c0: ad18 b83b ee21 b63e f811 1ebe 37e4 a2bd
000001d0: 6bb7 05bf 4cdd bd3e 5ac4 10bd e0d1 babe
000001e0: 46f4 e1be 343a 983e 8f96 61bd 1b88 643e
000001f0: 5faa c1be 680d 9e3e bde0 803e e4ac e8be
00000200: 663c e53d d1c2 7b3e 8125 f03c 5692 cf3d
00000210: e1e1 44be 392d 0fbe 9ff4 13be e122 67be
00000220: bb01 8b3e 11bf 08bd cea4 643e 876f edbc
00000230: 8c06 d13d cbcc 5c3d cacd 473e 1e5e 8b3e
00000240: 0a77 563e bea4 90be 291d e13d cd98 453e
00000250: 9e96 873e 4dde 47be 4cea 81bf 0d11 dc3d
00000260: 2488 b1bd 8dee babe 0705 30bf 9017 0c3f
00000270: 272f 71be f209 033f 829a 24bd 7a4a ab3e
00000280: fb5f d23d 3d5c c3be 1252 743d 47f2 893e
00000290: bdd1 343d 6096 023d 5b3e 90bd 6d4f 2ebe
000002a0: b31f 93bd a090 72be c54a 76be cafb f6bb
000002b0: efa9 05bf 4913 f53c 26c5 01bf 16a8 94be
000002c0: 3d5a 2ebe 5b7c 92bb 654b 38be fd5c 91bd
000002d0: 829b 35be 2428 fb3d d3ac 40bd f5d4 ddbc
000002e0: 9e65 99be db95 d7be 3c00 55be b012 833e
000002f0: 9f69 1d3e 3b24 cc3e ba69 70be 749a 013f
00000300: 43ed e7be 02a6 c4be 575d ae3e 5993 063f
00000310: 210c fc3e bbf0 1c3f 35dc 983e 2540 ee3d
00000320: dc1e b63d b347 07be 4680 4dbe 6da6 35bc
00000330: 60eb f13e 71b5 4dbe 971b d0bd 15f8 32be
00000340: a700 0fbe 813e 95be 7218 a93b f7d9 38be
00000350: 1745 2bbe ebfa 8bbe 817c 4b3c 5690 8bbd
00000360: e363 76be 2d35 bcbe de5e 8abe 455a e93e
00000370: 3d51 f93d ab91 20be 56c5 18be 4fdb 2d3e
00000380: 86c3 4c3e 89be 3cbd 6f0b 523e 4179 1c3e
00000390: ee83 6abe f8a3 cbbe 8f58 5ebe 51ec 883e
000003a0: 1784 63be ebe8 663e 7b0a bbbd 7b22 723e
000003b0: 8152 1fbe 9edb e43e 688b 37be c3e4 e43d
000003c0: fbdb c83d f2dd 673d 4755 17be b5dd 4f3e
000003d0: 183e 643e 7986 d13d 9cd5 803e d093 7c3e
000003e0: c62e 0a3e e5d0 9cbe fc3f cfbd 17a7 6d3e
000003f0: fb04 af3f b551 febe ad8e 49bd 7a6c 3ebd
0.015473962 0.18587013 0.22963947 0.1325115 0.20737164 0.27613965 -0.33554018 -0.17228557
-0.22153367 0.17801714 0.09497476 0.030338397 -0.01612735 0.36591688 -0.071302 -0.05040984
0.061046727 0.16316128 0.03854608 -0.1322259 0.00030022964 0.17537864 -0.16027583 -0.06602441
0.21735583 -0.11182576 0.11678227 -0.3303283 0.2935322 -0.2883532 0.2602416 -0.16825573
0.09460066 -0.33195502 0.18285616 -0.19977638 0.033686854 0.050179854 0.011109999 -0.32286432
-0.011889904 -0.18954466 -0.080225214 -0.3601388 -0.05267917 -0.0022067004 -0.16387212 -0.5895167
-0.35340732 0.68190014 0.16048016 0.11958048 -0.27305114 0.050342843 -0.0155930305 -0.034741618
0.1661605 0.365036 0.016354239 -0.48920196 -0.3059962 0.41810083 0.05651956 0.24741483
-0.17185265 0.17118673 0.066152394 -0.0048481976 -0.27984926 -0.22760235 -0.15529631 -0.15709926
0.008418052 0.01381887 -0.03136508 -0.16808237 0.060988177 -0.042473532 -0.22076409 -0.43868104
0.17543302 0.031243794 -0.34533596 -0.43353376 -0.047258854 0.20346859 0.2617867 -0.1087656
-0.2775766 0.20980029 -0.28049958 -0.35638234 0.26720953 0.39271557 -0.06042261 -0.43714595
0.5405657 -0.16854088 0.34363678 -0.17279309 -0.10022465 -0.10565782 0.28834158 -0.11255704
0.4126542 0.31788644 0.42700893 0.24329601 0.1050722 -0.07590525 -0.045631643 -0.33250508
0.005618176 0.3557276 -0.15436542 -0.07953685 -0.52233 0.370829 -0.035343505 -0.36488247
-0.44131678 0.29731905 -0.055075224 0.22317545 -0.37825295 0.30869603 0.25171462 -0.45444405
0.11193161 0.24586035 0.029314758 0.10135333 -0.19226791 -0.13982095 -0.14448784 -0.22571899
0.27149758 -0.03338534 0.22328493 -0.028983844 0.10206327 0.053906243 0.19512096 0.27220243
0.20943847 -0.28250688 0.1099189 0.1929657 0.264821 -0.19518395 -1.0149627 0.1074544
-0.08668545 -0.36510125 -0.6875767 0.54723454 -0.23553143 0.5118705 -0.040186413 0.3345526
0.10272213 -0.3815631 0.05964858 0.26942655 0.044145335 0.03188169 -0.07043143 -0.17022486
-0.071837805 -0.23687983 -0.2405196 -0.00753734 -0.52212423 0.029916422 -0.5069145 -0.2903449
-0.1702661 -0.0044703907 -0.1799751 -0.07097814 -0.17735103 0.122635156 -0.047039818 -0.027079085
-0.2996034 -0.42106518 -0.2080087 0.25600195 0.15372322 0.39871392 -0.23477831 0.506263
-0.45298204 -0.38407904 0.34055588 0.52568585 0.49228004 0.61304826 0.29855505 0.11633328
0.08892605 -0.13210945 -0.20068464 -0.011087042 0.4724989 -0.20088746 -0.10161512 -0.17477448
-0.13965093 -0.2914925 0.005160385 -0.18051897 -0.16725574 -0.27339873 0.012419821 -0.06814639
-0.24061541 -0.3675932 -0.27025503 0.45576683 0.12173698 -0.15680568 -0.14919028 0.16978191
0.19996461 -0.046080146 0.20512174 0.1528063 -0.2290189 -0.39773536 -0.2171347 0.26742795
-0.22218357 0.22549789 -0.09132858 0.23645966 -0.15558816 0.44698805 -0.17924273 0.11176445
0.09807583 0.056608148 -0.14778624 0.20299418 0.22289312 0.10230727 0.2516297 0.24665761
0.13494405 -0.30628124 -0.10119626 0.23208271 1.3673395 -0.49671713 -0.04920833 -0.04649017

pushupdetector/dense_22/MatMul f4 [64, 128]
00000000: b227 dabe 58f3 e9be 0de5 1f3d 9778 03be
00000010: d849 b2bd b04d ea3e f7ba a4be 144b 3a3e
00000020: cf7a fabe 029f ecbe 8dad bfbc b221 643c
00000030: a574 163e b0c2 3dbb ab9e 003f f951 1fbe
00000040: 3217 413e c368 363d 39ed 47bc e087 b43d
00000050: 7a51 31be 088f d23e 6694 643e 1f47 153d
00000060: 01ae debe 44bb 8bbd f4aa 3a3f 9ee7 233e
00000070: bb90 e53e f679 973d 631d c8be 7541 b33e
00000080: 67bf fa3d ed1f f53e ac0a 0bbf 9175 113f
00000090: be15 5d3e d238 dcbe b862 99be 8e15 41be
000000a0: 1a41 b63e 76d1 033e 272e 953c 8400 8b3e
000000b0: 325b 62be 94bf 86bd 2a84 363e df38 1d3d
000000c0: 3a76 c8bd 1fb9 ab3e c9c9 2ebe 8a21 da3d
000000d0: 4341 cb3e 129e 5f3e a54f 01bd 00c8 84be
000000e0: e65b e13c 7553 1dbd c9bd a3be 340a 833e
000000f0: 0b0f f3be fbaa 70be ed4f 243e 8c5a 09bf
00000100: 4257 93be db63 0dbf 2c47 b4be da6b a63e
00000110: 13de cebe 6395 643e b516 f33e 8d27 e3be
00000120: b2ce 85bd c8d8 b53e e5b3 57ba 84fa ee3e
00000130: 3895 1d3e e08a f03e 521c 78be 08b8 893e
00000140: e53f b53d 9f5f 9b3d 7b46 d83e 4d3b 6a3e
00000150: 8cd6 5d3d 0dd3 b83d 0db7 403f 2160 f93d
00000160: 775d 1b3e 29e6 b33e 2b3d b03e a5c4 d3be
00000170: 2ed5 353e 5739 2e3e 113a 9ebe de62 cc3e
00000180: c7a6 cabd 7e4b e83d bdd0 0bbf 07e4 f63e
00000190: 33f6 103d 34f7 a4be 36dc 81be a090 bbbe
000001a0: 6bff 82bc bfe5 e9be 96bd 0a3f dfab 8f3e
000001b0: bda1 123f 7b78 6f3e b73a 6d3f 9c9f 343f
000001c0: 3921 ad3e b95b 0e3f 01c2 fe3d 50d1 6b3d
000001d0: fecf da3d 8578 7bbd 90ca a3be e559 5b3b
000001e0: 0e7e 373f 5fc6 12be 55f6 cdbe 8164 243d
000001f0: 77d9 263e e424 bc3e 9e85 363e c1bd a5be
00000200: 049a cebc c4d7 853d e42d 103f 9bec 863e
00000210: ed5d 7d3f e86b 58bd dc62 61bd 8c37 60be
00000220: 8a14 a13b 135d 08bd 00d9 403f bcd3 cabd
00000230: 7ac4 0f3f 72a7 023f 2f05 0c3e 213e 2f3f
00000240: 09b7 db3e 88c6 203f 27d8 5abe d2c2 253f
00000250: c581 5b3e 6054 ba3e 2e86 30be 2119 423f
00000260: 72e9 8a3d 93b8 e83e 7274 3c3f 9c2c 3b3f
00000270: ac54 bcbd bb80 803f 817b 183d 2d1d 283f
00000280: 9735 4a3c e2c5 133f 0b7e e43c 277e 2d3f
00000290: 41c6 cabd 4fcd 3bbd 1e62 aebc 23ab e93d
000002a0: 06d6 6a3f 0af1 8c3f fdb3 df3e 4e2c b9bd
000002b0: 552e 5bbe a8c1 0f3f 583c 343f 7974 ecbd
000002c0: b7ca 3f3f 7f1d bc3e 81b8 3b3e 2a8c 7cbd
000002d0: 2e14 323f 49a7 f93e c5e2 073f 4397 153d
000002e0: 7b97 073f f86d da3e 39b6 9cbe 4541 093d
000002f0: 4ba6 5fbd cac9 f1bc bcde 5cbd 0776 aa3c
00000300: 0b7c 50be 517c 413e ee0e 83be 8f8a 9b3e
00000310: 771f 063d edd7 d1bc 0960 183f c595 f13c
00000320: d0ba 883e fd58 033e 8803 2dbe 7e1c 92bb
00000330: e767 163e 49ca 8e3e 15e0 8cbd ef5f cb3e
00000340: c474 6e3f c15e 1c3f 2530 e73e c4e3 803f
00000350: eae2 1a3e 3c11 a73e facc 403f cf08 fc3e
00000360: 15a0 85bd 3d3d 3b3e a39f ab3f 023f 0fbd
00000370: 4ace 1b3e 9a72 9e3e 4a2a e4bc 38cb 7a3f
00000380: 4c05 473f 0a22 4ebe 1c8e c2bc c219 b23d
00000390: 97b0 843e 2fc8 2d3d fc70 12be bd18 61be
000003a0: 3570 023f a66a be3d da69 f23e ebbc c23e
000003b0: 8676 623e f110 8f3f 9209 ff3e 8012 0e3f
000003c0: b993 2c3d 7add cf3e 9bd2 633f 7323 413f
000003d0: 5b72 213f 2ddf 00be cf96 f9bd d4b4 93bc
000003e0: fd2f 293f d7de 083e e10c c2bd e811 ad3c
000003f0: 19d1 563e 2058 643e 4572 103f d742 d0bc
-0.4260841 -0.4569347 0.0390368 -0.1283897 -0.08705491 0.45762396 -0.32173893 0.18192703
-0.4892182 -0.46215063 -0.023398185 0.013924049 0.14692934 -0.0028955154 0.5024211 -0.15558614
0.18856505 0.044533502 -0.012202554 0.088149786 -0.17316237 0.4112475 0.22322235 0.03644478
-0.4349213 -0.068228275 0.72917104 0.16006324 0.44836983 0.07396309 -0.3908492 0.35010877
0.12243538 0.4787592 -0.5431316 0.5682002 0.21590325 -0.430121 -0.2995813 -0.18855879
0.35596544 0.12872872 0.018210484 0.2714883 -0.22105101 -0.065795094 0.17823854 0.038384315
-0.09788175 0.33539674 -0.17069162 0.10650928 0.39698228 0.21837643 -0.031570096 -0.25933838
0.02750964 -0.03840967 -0.31980732 0.25593722 -0.47472414 -0.23502724 0.16046114 -0.5365379
-0.2877751 -0.5523049 -0.3521055 0.3250416 -0.40403804 0.22322612 0.47478262 -0.44366112
-0.065335646 0.35516953 -0.00082284055 0.46675503 0.15388954 0.46980953 -0.24229553 0.26898217
0.088500775 0.07586598 0.42241272 0.22874184 0.054159686 0.0902463 0.75279313 0.12176538
0.15172373 0.35136536 0.34421667 -0.41360965 0.17757103 0.17014061 -0.30903676 0.3991918
-0.098950915 0.11342524 -0.54615384 0.48220846 0.035391044 -0.3221985 -0.2536332 -0.36633778
-0.015990933 -0.45683095 0.54195535 0.28060815 0.57278043 0.23385803 0.92667717 0.70556045
0.3381441 0.5560871 0.12439347 0.057572663 0.106842026 -0.061394233 -0.3199048 0.003347033
0.7167672 -0.14333485 -0.40227 0.04013491 0.16293894 0.36746895 0.17824408 -0.32371333
-0.025219925 0.06535295 0.56320024 0.2635239 0.98971444 -0.052837282 -0.05502592 -0.2189619
0.0049157785 -0.033291887 0.75331116 -0.099036664 0.56159174 0.5103675 0.13673852 0.68454176
0.42913082 0.62802935 -0.21371518 0.647504 0.21436222 0.36392498 -0.17238685 0.75819594
0.067828074 0.4545332 0.7361518 0.73114944 -0.091958374 1.0039285 0.037227158 0.6566952
0.012341878 0.5772382 0.027892133 0.6777062 -0.09901095 -0.045850094 -0.02128702 0.11409595
0.91732824 1.1011059 0.43692008 -0.090416536 -0.21404393 0.5615487 0.7040458 -0.11545653
0.74918693 0.36741254 0.18332101 -0.06165711 0.6956204 0.4876044 0.530804 0.036521208
0.52965516 0.42662024 -0.30607775 0.03350951 -0.05460195 -0.029515166 -0.053923354 0.020808233
-0.20359819 0.18895079 -0.25597328 0.3037915 0.03274485 -0.025615657 0.5952154 0.029490361
0.26705027 0.12826915 -0.16895878 -0.004458963 0.14688073 0.27888706 -0.06878678 0.3972163
0.9314692 0.61082083 0.4515392 1.0069509 0.15125623 0.32630336 0.7531277 0.4922547
-0.06524674 0.1828508 1.3408092 -0.0349722 0.15215412 0.3094681 -0.027852196 0.9796634
0.7774246 -0.20130172 -0.023749404 0.08696319 0.25915977 0.042427238 -0.14300913 -0.21982093
0.50952464 0.09297685 0.47346383 0.38034758 0.22115526 1.1177045 0.4981199 0.5549698
0.042133067 0.4059866 0.88993233 0.75444716 0.6306512 -0.12585135 -0.121869676 -0.018030562
0.6608885 0.13366257 -0.09475113 0.021126702 0.20978202 0.22299242 0.5642436 -0.025422497

pushupdetector/dense_23/MatMul f4 [3, 64]
00000000: a82d 9a3f 89dd 653e 1ddb 7f3e d232 a23f
00000010: 7388 2bbf 6bd7 5b3e e8f8 ae3e 0ab5 853e
00000020: 00ff 713f 279b 30bf 17d3 b33f a6e8 d43e
00000030: 9631 3abf 1862 c43f 269b be3e db07 433f
00000040: 1d75 d03f 1265 853f 2d1f 6dbf 6401 7fbf
00000050: 3fbd af3e f4cf 1dbf 737b 46bf 78f7 66bf
00000060: 67d4 ab3f e6dd 893d 7172 69bf 7b92 933f
00000070: 6dc7 bb3e 5390 9a3f 9470 84bf a273 0a3f
00000080: be4a 9e3e cd29 49bf dcb1 f03d 9ca6 7c3f
00000090: 00e5 eebd 2373 c03e 772c 19bf 7010 833e
000000a0: 6662 aa3e ab25 79bf 01b7 333f ac44 4b3e
000000b0: 92d7 83bf 6dc5 033e fa23 193e fda8 293f
000000c0: ffe2 703f d4ca 82bf 6fa9 803f 682e 7f3e
000000d0: 224f 02bf be9e 8abf cd82 63bf a8b7 d13f
000000e0: 620c 533f 7352 af3f e0ed b03e 2175 8e3e
000000f0: 1a76 59bf 9566 3fbf d750 553f faf8 8a3e
00000100: df51 39bf 1f26 dfbf 4c0e d7bf 4808 5cbe
00000110: 53f4 95be 6314 1d3f 77d3 893e 6e3c e73e
00000120: 45a2 d2be d4e0 ea3e 7af9 c0bf f25d 113f
00000130: b66d 3dbf 1261 93bf 78e9 bebf 24e2 53bf
00000140: 68a6 adbf 10ab adbf a94a da3e 7f7a b03e
00000150: 2213 fb3e eac2 9c3f 74e7 6d3f af98 b53e
00000160: fbfe e5bf 6589 293f 5ed5 c4be 611f a2bf
00000170: 6104 acbf 2ba3 0abf 9cb2 fa3e 4640 28bc
00000180: c49b c9bf 4873 593f a34a ddbf 4506 a9bf
00000190: 99b9 abbf 7cc5 e3bf e79a 84bf b0a3 babf
000001a0: 39a7 e3bf d31a bd3e 5e4a 163f d66a 8c3e
000001b0: 68df d63e 897a f1bf 984e 8d3e 5f8a a33e
000001c0: d230 a4bf f699 923f a512 d8be b6d8 b33e
000001d0: b44a 623f 94be 5c3e dabc 833e d3b8 9cbf
000001e0: 17d3 82be 5dc5 8bbf ea00 043f d2fc d5bf
000001f0: f44a a93d eec7 463f e356 a3bf 8081 cebf
00000200: 6ba3 7dbf 3dde 773e dcd4 c23e a393 73bf
00000210: 1264 513f f95d c2bf 6f40 d2bf 76bb babf
00000220: ab6e 6bbf 44c8 f03e 5fc3 7dbf 5452 a8bf
00000230: 635a 263f 4369 99bf 46fb cd3e 8c7d 9ebe
00000240: dafe 8bbf 5639 09bf 80f7 9d3e 2f7f 9a3e
00000250: 7e8d c1bf 280d 6fbf 523c 46bf dd09 173e
00000260: 271f 82bf 7f0b 3dbf 579d 563f 6db2 35bf
00000270: 7d79 d53e a8d7 67bf 92ce db3e ab4c c3bf
00000280: 800b 933e 44b2 f13c 4ff4 e43e 8e2b 67bf
00000290: aa87 0e3f f734 b23e 1612 3d3f 9d7a 813e
000002a0: 5479 a13e 0385 c13e a96e a8bf f37a e3bf
000002b0: 812a b43e e28b fc3d e92d d0bf 4478 d5bf
000002c0: d5d4 5dbf 0cdf 38bf 7e28 acbf 189c d1bf
000002d0: f74b a2bf c05b 693e 96d4 8d3e d480 8abf
000002e0: 609c 67bf 3bea 73bf 82fa c1bf ac30 7c3e
000002f0: 05bb 1e3f 0e5d 99bf fb5e 37bf 7c56 8a3e
1.2045183 0.2244779 0.24985929 1.2671759 -0.6700508 0.21468894 0.34174275 0.26114684
0.94529724 -0.68986744 1.4048795 0.41583747 -0.7273191 1.5342436 0.37227744 0.7618386
1.628574 1.0421469 -0.92625695 -0.99611497 0.3432407 -0.61645436 -0.7753212 -0.9022136
1.3424195 0.06731777 -0.9119025 1.1529077 0.36675587 1.2075294 -1.0346856 0.5408269
0.309164 -0.7857941 0.11752674 0.98691726 -0.11664772 0.37587842 -0.5983347 0.25598478
0.33278197 -0.973231 0.70201117 0.19850415 -1.0300162 0.1286828 0.1495513 0.6627348
0.9409637 -1.0218148 1.0051707 0.24920046 -0.50902 -1.0829694 -0.8887146 1.6384172
0.8244077 1.3697037 0.34556484 0.27823737 -0.84945834 -0.747659 0.83326477 0.2714308
-0.7239055 -1.7433509 -1.6801238 -0.21487534 -0.29287967 0.6135923 0.26919147 0.45163292
-0.41139427 0.45874655 -1.5076134 0.56783974 -0.7399553 -1.1513999 -1.4914999 -0.8276694
-1.3566408 -1.3567829 0.42635086 0.34468457 0.49038035 1.2246983 0.92931294 0.3546805
-1.7968439 0.6622527 -0.38444036 -1.2665826 -1.3438836 -0.54155225 0.48964393 -0.01026923
-1.5750661 0.8494153 -1.7288402 -1.3205038 -1.3416015 -1.7794642 -1.0359772 -1.4581203
-1.7785407 0.36934528 0.58707225 0.2742526 0.4196732 -1.886552 0.27599025 0.31941506
-1.2827399 1.1453235 -0.42201725 0.35126275 0.8839524 0.21557075 0.2573002 -1.2243904
-0.25551674 -1.0919605 0.51563895 -1.671778 0.08266249 0.7764882 -1.2760891 -1.613327
-0.9907748 0.24205871 0.38053024 -0.9514715 0.8179332 -1.5184928 -1.6425914 -1.4588459
-0.9196574 0.4702779 -0.9912624 -1.3150125 0.6498167 -1.1985248 0.4023077 -0.3095516
-1.093715 -0.5360311 0.3085289 0.30175158 -1.5121305 -0.9337945 -0.7743579 0.14749856
-1.0165757 -0.73845667 0.8383383 -0.7097538 0.4169425 -0.9056344 0.42931038 -1.5257772
0.2871971 0.029503949 0.44717643 -0.90300834 0.55675757 0.34806034 0.7385572 0.2528886
0.3153788 0.37796792 -1.3158771 -1.7771896 0.35188678 0.12331368 -1.6264011 -1.6677327
-0.8665288 -0.7221534 -1.3449857 -1.6375761 -1.2679433 0.22788906 0.27701253 -1.0820565
-0.90472984 -0.9527928 -1.5154574 0.24627942 0.6200412 -1.1981523 -0.71629304 0.27019107
