Models/pushup-model-28may22.tflite (tflite, 64584 bytes, 6 tensors)

dense_5/bias f4 [2]
00000000: be03 c1bd b203 c13d
-0.09424542 0.09424533

dense_4/bias f4 [64]
00000000: c1a6 c23d 964f 8d3d 91f6 cd3d b31d 4d3d
00000010: b43d 833d 4007 d73d c4be 953d 28d5 b63d
00000020: dd92 e73d deec a53c 6eac 1e3d b480 843d
00000030: b77d 843d 0b7b 7f3d f61b f63c 59b7 803d
00000040: ab10 433d b1f5 f83c 23e0 4e3d c87d 193d
00000050: b119 583d 8a79 833d 5942 853d 4616 bf3d
00000060: eed7 273d 857a 7f3d d899 6a3d 7fc4 703d
00000070: d4f2 793d af7f a73d cd3d a53d 5339 463d
00000080: 00f8 6d3c 6150 773d c91f 833d 7e15 773d
00000090: f898 963d 2518 c13d 0006 9c3d b8d3 fa3d
000000a0: eb7e 3b3d 3078 8b3d 2b2f c63d 4416 383d
000000b0: 1646 9a3d 4a41 973d a38e 763d ca3d 9c3d
000000c0: 0d14 8a3d b4b5 983d cc01 3f3d 1e90 6d3d
000000d0: 02da 803d c6d6 a83d 6d40 6f3d 6bba a43d
000000e0: 54c9 683d 9375 6c3d b91b 493d bb70 2b3d
000000f0: c77a af3d 866c dd3d 1a58 7b3d 8040 4f3d
0.09504462 0.068999454 0.100567944 0.05007715 0.06408253 0.1049943 0.07311776 0.08927375
0.11307309 0.020254549 0.03873866 0.06469861 0.06469291 0.062373202 0.03004263 0.06284971
0.047623318 0.030390592 0.050506722 0.03747347 0.052758876 0.06419666 0.065067954 0.0933042
0.04097741 0.062372703 0.057275623 0.058781143 0.061022595 0.081786506 0.08068428 0.048394512
0.01452446 0.06037939 0.06402547 0.06032323 0.07353395 0.09428433 0.07618332 0.122474134
0.045775335 0.06810033 0.09676965 0.04494311 0.07532899 0.073855 0.060194623 0.07628973
0.06742106 0.07456532 0.046632573 0.05799877 0.06291582 0.0824409 0.05841105 0.08043369
0.056832626 0.057729315 0.049098704 0.041855555 0.0856834 0.10811715 0.061363317 0.05059862

dense_3/bias f4 [128]
00000000: f72d 63bd 4623 34bd 6e9b 88bb 29a1 81bd
00000010: cb9d a93c 2725 68bb 2681 48bd 4c79 57bd
00000020: 3e69 44ba 5e0e 8abd 2fba 7abc 2c00 d0bd
00000030: c938 01bc 2269 ddbd 1c30 a7bc 3393 b2bd
00000040: b6dd 1bbd 9a12 dbbc fa66 b6bc 58f7 2cbd
00000050: 6944 d0bc 757b 10be 92d9 99bd 1e74 93bd
00000060: ce84 6cbd 50fb 2dbc f443 18bd f368 48bd
00000070: d45c 96bd 3f43 9ebd 95ec ddbc 2945 d0bc
00000080: 6023 95bd 2cc4 853c 1f72 d1bd fe8c e7bd
00000090: a003 3fbd 6a60 4cbd a577 abbc 34e7 a83c
000000a0: 1fa7 37bd 088e 0cbd a812 b5bd e06f 0dbd
000000b0: 3e0e d7bc f37b ebbb 93a6 b3bd 7579 c4bd
000000c0: a0b6 edbc 9489 20bd 91ff 9dbd f25a 85bc
000000d0: ce2a 22bc a60a 08bc b135 52bd 52dd 90bd
000000e0: b3b5 73bd 1edc bfbd a5ea 84bc bcc3 f2bc
000000f0: b6da 74bc ea74 59bd ac07 a1bd 47d2 81bd
00000100: 7200 67bd 01c6 f8bc ff7b 82bc 9372 42bd
00000110: e2b5 43bd 2db0 40bc e85b 1fbd ab74 b8bc
00000120: a759 b1bd deed 51bd 70b2 d4bd d1d4 3bbd
00000130: 8834 bbbc e2a8 88bd f12c 79bd e066 e5bc
00000140: c700 83bc 6032 9cbd 6bce 11bd e0fe 7cbc
00000150: 3f8f 82bc b9bf 61bb ce37 44bd 19e6 b1bd
00000160: 7a67 50bd 1b09 9bbd a6ad 13bd 6132 1cbd
00000170: fc77 66bd c327 aebc 0dc0 1ebd e550 06bd
00000180: 928b a0bc a5fb 4fbd ee47 42bd 0d59 a4bc
00000190: 26f5 af3a ade1 04bd 72e3 13bd 540e 45bd
000001a0: cd37 6dbd b3db 4ebd 81ba 3bbd 230a 0cbd
000001b0: 47f7 2fbd d7a7 43bd e2ec dabc 9cf2 afbd
000001c0: 9e03 e5bc 5d83 98bd 2790 70bd 5b30 81bd
000001d0: 5c1e 2bbd 466d e9bc f634 62bd 8037 2dbd
000001e0: 26da debc db37 dfbc e77c c3bd 1b7f 86bd
000001f0: 4aa8 603c 0fbb 6bbb edf0 5dbd b713 7fbd
-0.055463757 -0.043978952 -0.0041689193 -0.06329567 0.020705124 -0.0035422535 -0.04895129 -0.052605912
-0.0007492489 -0.067410216 -0.015303179 -0.10156283 -0.007887074 -0.10811068 -0.020408683 -0.08719482
-0.038053237 -0.026742268 -0.0222659 -0.042228073 -0.025423246 -0.14109595 -0.07512201 -0.07199882
-0.05774384 -0.010619 -0.03717418 -0.048928212 -0.07341924 -0.0772767 -0.02709035 -0.025423603
-0.07282138 0.016328894 -0.10226845 -0.11306189 -0.046634316 -0.049896635 -0.020931074 0.020618059
-0.044837113 -0.03431514 -0.08841449 -0.03453052 -0.026251908 -0.0071864068 -0.08772006 -0.095934786
-0.029017746 -0.039193705 -0.07714761 -0.016278718 -0.009897901 -0.00830332 -0.051320735 -0.070734635
-0.059499454 -0.09368156 -0.016225168 -0.029634349 -0.014944723 -0.053090014 -0.078627914 -0.06338935
-0.05639691 -0.030367853 -0.015928267 -0.047472548 -0.04778088 -0.011760754 -0.038906008 -0.02251657
-0.08659678 -0.05125224 -0.10385597 -0.045857254 -0.022852197 -0.06672837 -0.060833875 -0.028003156
-0.015991582 -0.07626796 -0.035597246 -0.015441626 -0.015937446 -0.003444655 -0.047904782 -0.08686466
-0.050879933 -0.07570096 -0.036054276 -0.038133983 -0.05626677 -0.021259194 -0.038757373 -0.03279199
-0.019597802 -0.050777096 -0.04743188 -0.020061994 0.00134245 -0.032441784 -0.03610558 -0.048109367
-0.057914544 -0.05050249 -0.04583216 -0.034189355 -0.04296043 -0.047767486 -0.026724283 -0.08591196
-0.027955826 -0.074469306 -0.058731224 -0.06308051 -0.041777 -0.028494488 -0.05522629 -0.042289257
-0.02720363 -0.027248314 -0.095453076 -0.06567212 0.013711998 -0.003596965 -0.054184843 -0.06227466

pushupdetector/dense_3/MatMul f4 [128, 34]
00000000: 7938 033c c1a9 cb3d e994 313d 1c05 f43d
00000010: 813b 8c3d 5cbe 4e3c 4ac6 ba3d 9aee 943d
00000020: b5dc b0bd a6cc 053e 4b2e 003d c4dd fc3d
00000030: 0c2d 0b3e 995b 073e 3f6d e4bd 56d7 953d
00000040: 25c6 d33d 7624 cbbd a719 40be 08dd bd3d
00000050: 2e94 443e b2a0 54be 346e a2be 6a0e 36be
00000060: 6319 c73e a5d6 a93d e822 273e d897 30be
00000070: a11e 083d 9606 86bd ddd4 023c 6bc6 e9bd
00000080: 11c9 5a3d f116 16be fee4 8d3e 8201 e4bd
00000090: 692a e93b f701 7a3d 795d 543e 2269 113e
000000a0: fbb2 e13e cbb2 c2bc 8fdb dd3e ecf3 ef3d
000000b0: 8e67 053f 1ac7 073d c203 6d3e 77ff a53e
000000c0: 67c3 2b3f a8c9 293d e769 ab3d d176 16bd
000000d0: 7fc5 3b3e 3051 97be 34d3 a9bd 3ddc 083e
000000e0: 2535 92be 9320 b1bd f0f3 b43b c3d4 793e
000000f0: e83c 2cbe 8e96 d1bd c954 a8bd 5e48 823e
00000100: e0e7 3abe 7dba 633e b389 803d 6cff 4f3e
00000110: 2f23 013f 4f79 723e dab3 7c3e 08c4 d3bd
00000120: dfe9 bc3e eb62 883d 04a8 3ebe e619 42be
00000130: 4e50 50be 879a 95bd 9953 683e 5297 653e
00000140: c0ad 35be 562a cd3d 54e0 cabc 2901 083e
00000150: 9da1 293e f790 62bd 7b8c a53e ae9d 563e
00000160: 65cd 9d3e 22d2 d5bd b9c1 dcbc 42ee 4cbe
00000170: 4cf6 f8bd 1e0a a23d ee7e 2fbe 297c 98bd
00000180: cb6d 9fbe bcb6 933e a7c4 8e3b bae4 2b3d
00000190: b857 97be 1f11 70bd be37 8fbe c7e8 d9bc
000001a0: 626c aabc 1805 b13d fb57 89bd fc37 373e
000001b0: 2f33 c8be 9874 863d 4b1c 993c 5041 0c3e
000001c0: e649 46be 87a0 873d 1a6a 293e 7205 973e
000001d0: 1155 a83e f268 12be 02bd 79bc f443 aabd
000001e0: 0133 9ebd a41f 2cbe 6127 ffbd 6cf0 06be
000001f0: e3ee d53c 87ec 3cbd 8638 403d bd4f 86bd
00000200: ce03 95be 2995 733d fc80 4abe 87b5 2dbe
00000210: 69d5 6bbe 1581 f53e ea9b 6abe d771 e93d
00000220: a224 70bc e00b d73d 9cf7 973d 766d c0bd
00000230: c32c 47bd 90c5 01be 8e3c 1dbd 5e21 6e3e
00000240: 8aa9 523e e9da 6bbc 2261 1d3c c08c f73d
00000250: 8057 3f3e 4c71 fdbd a033 cd3d fbaf 32be
00000260: 8d18 38be f051 d9bd 0581 16be a3e4 7ebd
00000270: bc1b 63be 7e1a 7c3e 57e7 96be 25b8 49be
00000280: f728 103f 6157 573e 37fa 053c e380 2d3e
00000290: 3674 413e 57f6 163e 6c51 a3bc 087f b0bd
000002a0: fe60 95be f909 063e b830 eb3e 68d3 b73d
000002b0: 6533 d03e b787 423e 446e a63e a4eb b9bd
000002c0: 9b37 9abd aba0 55be 6799 0abc 43b6 0bbd
000002d0: d796 3b3e e99d 893e d451 16be 22c3 6bbd
000002e0: eb5c a3be 9ee5 603e 130a 9d3e 0d30 3f3c
000002f0: fbc3 423e 1cb4 b53d a064 883e ed99 a0be
00000300: 896c 403d 9823 323d 7877 8b3c 1c02 6bbe
00000310: bec2 7b3c 58b3 6bbe 80d9 90be 619f 8b3e
00000320: 323b 90bc 51c8 6e3c adee 9ebe dbd3 053d
00000330: b117 adbd 968d 603e 9234 e6bd 197e 883e
00000340: 51f5 133e 0036 813e 06d2 6ebd 8e1f 453d
00000350: 1d30 4dbc 96b9 403e bb23 46be f7b3 7a3c
00000360: 0f57 5dbd 3223 293e 2546 a0bc eaf4 2e3e
00000370: 94b9 1cbe 282e 37bd e825 b93e a2c8 893d
00000380: 4c0e 423e 4eab 8ebe d3de 8fbe 0af2 fb3d
00000390: 8256 833e fcfb 34be 83a2 7b3e 0ccb 24be
000003a0: 65bb 1d3d eed5 a83d c677 753e 727f 6cbe
000003b0: 99d0 803d 1bb8 3fbe 96de d93c 8f5b 5c3d
000003c0: 4f07 013e 1c9d 6e3e 3489 ce3d 530b af3e
000003d0: 50cc 94bd b813 c5bd 9c88 8ebe 5e86 d13b
000003e0: c08b 7ebd cc24 25bd 6d34 4cbe 7749 653e
000003f0: eee9 6f3d b83b e83d e284 c2bc 5ae8 4abe
0.00800907 0.09944487 0.043354902 0.11915037 0.06847287 0.012618627 0.09119852 0.07272072
-0.086358465 0.13066348 0.03129415 0.12346986 0.13591403 0.13218535 -0.111536495 0.07316463
0.103405274 -0.09919064 -0.18759786 0.09270674 0.19197151 -0.20764425 -0.31724703 -0.17778936
0.38886556 0.08292893 0.1632191 -0.17245424 0.033232335 -0.06544225 0.007985321 -0.11414798
0.053414408 -0.14657189 0.2771377 -0.111331 0.0071156514 0.06103703 0.20738782 0.14200261
0.44081864 -0.023766896 0.43331572 0.11716446 0.52111137 0.033148862 0.23145965 0.32421467
0.67095035 0.04145208 0.08369809 -0.036734406 0.18337058 -0.2955413 -0.08292237 0.13365264
-0.2855617 -0.08648791 0.0055222437 0.24397568 -0.16820109 -0.10233794 -0.082192965 0.25445837
-0.18252516 0.22239108 0.06276264 0.2031228 0.5044431 0.23679088 0.24677983 -0.10340124
0.3689718 0.06659492 -0.1861878 -0.18955192 -0.20343134 -0.073048644 0.2268814 0.22421005
-0.17742062 0.100178406 -0.024765171 0.13281693 0.16565557 -0.05531403 0.3233374 0.20958588
0.30820766 -0.1044047 -0.026947843 -0.20012763 -0.121563524 0.07912086 -0.17138264 -0.07445557
-0.31138453 0.28850353 0.004356939 0.041966178 -0.29559112 -0.058610078 -0.27972215 -0.026600255
-0.020803634 0.0864355 -0.06706234 0.1789245 -0.3910155 0.06565207 0.018690249 0.1369679
-0.19364128 0.06622415 0.16544381 0.29496342 0.328774 -0.14297846 -0.015242817 -0.08313742
-0.07724572 -0.16808945 -0.12458683 -0.13177651 0.026114887 -0.046124008 0.046928905 -0.065581776
-0.29104465 0.059468422 -0.19775766 -0.16963778 -0.23030628 0.47950044 -0.22911039 0.11398666
-0.014657171 0.10500312 0.074202746 -0.09395878 -0.048626672 -0.1267302 -0.038387828 0.23254916
0.20572487 -0.014395454 0.009605678 0.12087393 0.18685722 -0.12375125 0.10019612 -0.17449944
-0.17978115 -0.106113315 -0.14697655 -0.062229764 -0.22178549 0.24619481 -0.29473373 -0.19699152
0.5631251 0.21029426 0.008177332 0.16943698 0.18891987 0.14742409 -0.019936286 -0.08617979
-0.29175562 0.13089742 0.45935607 0.089758694 0.4066421 0.18997084 0.32506 -0.09078148
-0.07530137 -0.20862071 -0.0084594255 -0.034109365 0.1831926 0.26878288 -0.14679652 -0.05755914
-0.31906828 0.21962592 0.3067175 0.011669171 0.19020073 0.08872244 0.2663927 -0.31367436
0.046978507 0.043490976 0.01702474 -0.22950023 0.015366254 -0.23017633 -0.2829094 0.27270034
-0.017606352 0.014574126 -0.3104147 0.032672744 -0.084517844 0.21929011 -0.11240496 0.26658705
0.1444905 0.2523651 -0.058305763 0.048125796 -0.012523678 0.18820795 -0.19349568 0.015301696
-0.054038104 0.16517332 -0.019564698 0.17085615 -0.15305167 -0.044721752 0.36161733 0.06727721
0.18950766 -0.2786507 -0.2809969 0.12302025 0.25651938 -0.1767425 0.24573712 -0.16093081
0.03850879 0.08243929 0.23971471 -0.23095492 0.06289787 -0.18722574 0.026595395 0.053798255
0.12600444 0.2330212 0.10084763 0.34188327 -0.07265532 -0.09622902 -0.278386 0.0063941916
-0.062144995 -0.040318295 -0.19941874 0.22391306 0.058572702 0.113395154 -0.023745004 -0.19815198

pushupdetector/dense_4/MatMul f4 [64, 128]
00000000: 2ba9 e3bd 8daa 983e 81c8 47be 9722 283e
00000010: c349 c33d 81ea d1be 44de 5bbe 6306 90bc
00000020: b2c7 8e3e d55c c13e 68bb 353e 4db6 873e
00000030: 19b8 f93d 9f57 833e 0240 b1bd 6554 423e
00000040: 9a28 9fbd ec3b 87be 5c37 963e c69d 173e
00000050: ba56 cfbc 46bd 033e 33df e03e e3be 963c
00000060: dbf5 083e f8fb 70bd 8b1a 003f 2383 d83e
00000070: 507c 913c 05e1 393e 4f88 e33e 9ae3 7f3c
00000080: 6a26 43be 236f 453e 2d2c 70be 8be9 bc3d
00000090: d434 b43e c247 31be 074d 5b3d f0ab 253e
000000a0: 2897 f63d 8d7a 5dbe a7ca e63d 002f a9be
000000b0: 9c1a ab3c 3b80 2dbc 94e3 773e 4460 6f3e
000000c0: 7faa c23e f99b 1c3e b89e 07be 5f32 a13e
000000d0: ba36 be39 6d46 153d 8da0 ae3d 857a 763e
000000e0: a9fb 483b e4e8 b03b 9372 4cbe 2e28 ae3d
000000f0: d890 14be 3b37 11be d492 da3d a9f0 66be
00000100: 03f7 a53e aa66 9b3e a08a 6b3e bac5 cfbd
00000110: ac6f 54be 6153 303d 9fbe 853d dd06 003e
00000120: d34a 07bd 9b81 cf3e 8eb2 db3e ee83 143e
00000130: 9bf0 37be 2a6c 4b3e 9569 84bd ee90 febd
00000140: 10eb 1fbe 0c31 6f3e 4400 1b3e a434 823e
00000150: 11b1 e8bd 79ba 103d ceaf 6ebe a080 84bd
00000160: 8e78 273e ce10 893e ba74 a93d 0471 d33e
00000170: 661c e83e ecb3 113e 9261 e03e 9d83 6dbe
00000180: a3e7 023f 28da 233e c419 993e 0a3f 3fbe
00000190: 008f 09be f7c9 0f3f 85f6 aabc 4772 b23e
000001a0: 2ec0 e93e 1a69 08be cb99 803e 9cce 75bd
000001b0: e231 983e 9ee4 f83d bdf4 14bd 8ac7 053e
000001c0: 6458 f83d 5cee d53e a4f8 94bd 0141 eebd
000001d0: 65ef b33e 1a4e 1fbe 4a2c 113e 66ee 1dbe
000001e0: a73c cf3e 2828 2c3e 412c 5ebe ab60 3a3c
000001f0: 85c4 a33d 9f49 213e db0f 963e cf60 aabe
00000200: 94d7 ecbc 2c82 34be a788 913e 0356 fabd
00000210: bfce 023d 2f9f bf3e d958 97bc 756d 1a3e
00000220: 4edd 13be 04c1 5cbe 1c54 95be 16a1 b9be
00000230: 8370 93bd 3e1b 26be c8ba 52bc 34f3 a6be
00000240: a9b4 9f3c 3dfb 753d ae67 97be 7b44 223e
00000250: 7520 263e 3121 c2be 2079 93be 2dd5 99bd
00000260: 0ac1 d3bc fdae 063f caca 89be 353b 82be
00000270: a570 113e 091d c5be da7d 94be ebec a53b
00000280: 4e64 a83d b6cc 56be ccfb 2fbe 91ff 5dbe
00000290: df97 2bbe ff4f aa3d 5117 b2be a4fa febd
000002a0: 10d5 89be 0ac4 1a3e b1f0 3cbe bc46 213e
000002b0: d0ec 58be 16c7 6f3e 1f76 9bbe d197 e23d
000002c0: 08e9 95be f161 c1bd ffce 193e d0bd 38be
000002d0: 0da0 bd3e a1be 99bd a220 f9bd 9eef 07be
000002e0: fc2a 25be dc6a a3bd aa35 a73e 5893 adbe
000002f0: d314 a03e 8d94 773d a02d 4dbe ee23 ea3d
00000300: c7b3 66be e18d 8abe dc3f d7bd 349c 6d3e
00000310: 39a2 6f3e ce7d 0abe 4f4a 8e3d 4394 90bd
00000320: 6ab5 6c3d e735 09be 7c03 a3be 6ac6 aebe
00000330: 5e2c 26be 656d c9bd f41c ddbd 2bd6 01be
00000340: 584b 023d 8a41 f4bd ac5a 7fbe 7e28 87bd
00000350: 5647 343e 1020 15bc 8827 333e cf70 2f3d
00000360: 54a0 4cbe b2f8 bebe 121e 56be 7e22 adbe
00000370: 9cfb dfbe bb21 22bd 8953 c1be 6675 803e
00000380: 3d20 11be c166 2cbd 4213 31be a0b2 8e3e
00000390: 7008 f83e 9219 38be 8b79 5c3e 8175 30be
000003a0: f8e1 82be 67ac 6a3e 3db0 a7bd 50f5 60be
000003b0: a5d7 f7be 9341 c4bd eb17 c23d 962f 32be
000003c0: 34b6 6bbc fd32 f8be 0434 eb3d ab90 1c3e
000003d0: ba0c 04be 65a3 43bd d461 e9bd b706 7a3d
000003e0: a824 2dbe 4b3f 82bd 5df1 583e 9eeb 153e
000003f0: 97bd b5bd 8071 a8be 0a3c 72be badb 0fbe
-0.111162506 0.2981762 -0.1951008 0.16419445 0.09535553 -0.40999225 -0.21471506 -0.01758117
0.2788673 0.37766138 0.17747271 0.26506272 0.12193317 0.25652787 -0.08654787 0.18977506
-0.07771416 -0.26412904 0.2933911 0.1480628 -0.02530991 0.12865171 0.43920287 0.018401569
0.13375036 -0.058834046 0.500405 0.4228755 0.017759472 0.18152244 0.44439933 0.015618229
-0.19057623 0.19280677 -0.23454352 0.09224232 0.35196555 -0.1731253 0.053540256 0.1617887
0.120405495 -0.2162878 0.112691216 -0.3304367 0.020886712 -0.010589655 0.24207908 0.23376566
0.38020703 0.15293874 -0.1324414 0.31483743 0.00036280398 0.036444116 0.085267164 0.24070175
0.003066758 0.0053988565 -0.19965582 0.085037574 -0.14508379 -0.14181225 0.106725365 -0.22552742
0.32415017 0.30351764 0.230021 -0.10145135 -0.20745724 0.043048266 0.06530499 0.12502618
-0.033030342 0.4052857 0.42909664 0.14503452 -0.17962877 0.1986548 -0.06465451 -0.12429987
-0.15617013 0.23358554 0.1513682 0.25430787 -0.11361898 0.035334084 -0.23309252 -0.06469846
0.16354582 0.26770633 0.08274217 0.41297162 0.45334166 0.14228791 0.4382444 -0.23194738
0.511347 0.16001189 0.2990247 -0.18676391 -0.13433456 0.5616755 -0.020869503 0.34852812
0.45654434 -0.13321343 0.25117335 -0.06001149 0.29725558 0.1215298 -0.036366213 0.130644
0.12126234 0.41783416 -0.07273987 -0.11633492 0.3514358 -0.15557137 0.14177051 -0.15422973
0.40475962 0.16812193 -0.21696569 0.0113755865 0.079964675 0.1575074 0.29308972 -0.33276984
-0.02891139 -0.17627782 0.2842457 -0.12223437 0.03193545 0.37426135 -0.018474983 0.15080817
-0.1443989 -0.21558005 -0.29165733 -0.3625571 -0.07199194 -0.1622133 -0.012861915 -0.32607424
0.019495325 0.060054053 -0.2957129 0.15846436 0.16223319 -0.37915948 -0.2880335 -0.07511363
-0.025848884 0.5261076 -0.26912528 -0.25435796 0.14203127 -0.38498715 -0.29002267 0.005063643
0.082222566 -0.20976529 -0.17185897 -0.21679522 -0.16757153 0.08316039 -0.34783414 -0.1245015
-0.26920366 0.15113845 -0.18451191 0.1574964 -0.21184087 0.23415789 -0.30363557 0.11064113
-0.2927935 -0.09442509 0.15020369 -0.18041158 0.37036172 -0.07507063 -0.12164427 -0.13275
-0.16129678 -0.07979366 0.3265813 -0.33901477 0.31265888 0.060444403 -0.20036936 0.11432634
-0.22529517 -0.2706137 -0.10510227 0.23204118 0.23401727 -0.13524553 0.06947767 -0.07059529
0.057790197 -0.13399468 -0.31838596 -0.34135753 -0.16227862 -0.098353185 -0.10796538 -0.12679355
0.031810135 -0.11926563 -0.24936932 -0.0659952 0.17605338 -0.009101883 0.17495549 0.042832192
-0.19983035 -0.37299114 -0.20909908 -0.33815378 -0.4374665 -0.03958295 -0.37759045 0.25089568
-0.14172454 -0.04209018 -0.17292503 0.27870655 0.48443937 -0.17978504 0.2153074 -0.17232324
-0.25563025 0.22917329 -0.08187912 -0.2196858 -0.4840671 -0.0958282 0.09477218 -0.17400965
-0.014386702 -0.484764 0.114845306 0.15289561 -0.1289548 -0.047763247 -0.11395612 0.06104156
-0.16908514 -0.063597284 0.21185823 0.14640662 -0.08874052 -0.32899094 -0.23655716 -0.14048663

pushupdetector/dense_5/MatMul f4 [2, 64]
00000000: b470 173f 0c80 26bf 5fcb 02bf 3012 0dbf
00000010: 7ccf 0a3f d556 20be 1359 463f 52f2 18be
00000020: e8e6 3d3f 2c5f 4f3f 3a1f 2a3f 0b18 0e3f
00000030: 6d9b f43e 2fc2 fcbe 0278 c23e 7af2 2c3f
00000040: 9264 fc3e f720 07bf c7e6 4c3d 54b5 1d3f
00000050: f6b5 7a3f c159 5fbe 53e4 0fbf 5dfc 0cbf
00000060: 834d 08bf b1b6 383f 034a 083f bfa0 1e3f
00000070: dea8 01bf 96db 013f 0808 34bf 9204 99be
00000080: ce16 2d3f d1f0 0d3f 6167 23bf dc7d 22bf
00000090: a294 0cbf 5386 85be 6dc5 313f 6af9 30bf
000000a0: 2d7f 163f a4bc dbbe 9a0e 30bf cbd0 d0be
000000b0: 8006 633f 8049 87be 58b3 efbe 6857 183f
000000c0: e887 4d3f 3777 993e 472b b33e 3590 4f3f
000000d0: e6af f5be 87fa 543f 1a3c 24bf a5a2 19bf
000000e0: cd3c 3d3f 89e4 a03e 21eb 093f f3f3 45be
000000f0: afd6 f5be b79b e2be ef55 223f 0949 14bf
00000100: 1c7a 22bf bcbe 1c3f cb45 d33e 15b3 b23e
00000110: df20 26bf d321 2e3f 180f 3fbf a6d1 643e
00000120: 90eb f8be e695 01bf aa2b 22bf a177 f9be
00000130: 4d9e fbbe f65c c33e 0cd3 1bbf 15e7 46bf
00000140: 7db9 51bf 891e 653e 7a2c 23bf 2ec0 3dbf
00000150: ba89 80bf dc16 183f dd81 b93e b030 a83e
00000160: 26e5 b33e 3a5c 36bf c00d efbe 4edd 48bf
00000170: 7adf 233f 5817 fbbe 2ea1 2e3f 2e29 f33e
00000180: 5125 aabe 7c89 dabe 1d9e e23e 1266 c63e
00000190: 40ac eb3e 48f2 223f 870e e8be f2cc de3e
000001a0: cd7d 38be e718 283f 485e ea3e e87c b03e
000001b0: 643e 1bbf b1fe 3c3f b121 e53e 5e22 5cbe
000001c0: 8a18 fcbe 7137 26bf 3681 05bf 306a 18bf
000001d0: a178 ac3e 9752 26bf 04e1 c73e 6438 0c3f
000001e0: 1975 05bf e618 61bf bdcd 89be 8c8a f43e
000001f0: 04b2 cc3e 2eae 093f 61fe 61bf 6334 233f
0.59156346 -0.65039134 -0.5109157 -0.55105877 0.54222846 -0.15658124 0.77479666 -0.14936188
0.7418046 0.81004596 0.664539 0.55505437 0.4777483 -0.493669 0.37982184 0.6755749
0.4929548 -0.52784675 0.050024774 0.6160481 0.979339 -0.21811582 -0.5620777 -0.55072576
-0.53243273 0.72153765 0.5323793 0.6196403 -0.50648296 0.50725687 -0.70324755 -0.298863
0.6761292 0.5544558 -0.6382962 -0.63473296 -0.54914296 -0.26079044 0.6944187 -0.69130576
0.58787805 -0.4291736 -0.6877228 -0.40784296 0.88681793 -0.26423264 -0.46816516 0.5950837
0.802855 0.29973766 0.34993955 0.8107942 -0.47985762 0.83194774 -0.6415421 -0.600138
0.739209 0.31424358 0.53874403 -0.1933134 -0.48015353 -0.44259426 0.63412374 -0.5792394
-0.63467574 0.6122854 0.41264185 0.34902254 -0.6489391 0.6802036 -0.74632406 0.223456
-0.4861722 -0.5061935 -0.63347876 -0.48724082 -0.4914421 0.3815686 -0.60868907 -0.77696353
-0.8192366 0.2237493 -0.6373974 -0.7412137 -1.0042031 0.5940988 0.3623189 0.32849646
0.35135764 -0.71234477 -0.46690178 -0.78462684 0.64012873 -0.49041247 0.6821469 0.47492355
-0.33231595 -0.42683017 0.44261256 0.38749748 0.46029854 0.6365094 -0.45323583 0.43515736
-0.18016739 0.65663 0.45775056 0.34470296 -0.60642076 0.7382613 0.44752267 -0.21497485
-0.49237472 -0.64928347 -0.52150285 -0.5953703 0.33685783 -0.6496977 0.3903886 0.54773545
-0.521318 -0.87928617 -0.26914778 0.47761953 0.39979565 0.537814 -0.88278776 0.6375181
