Models/situp-model-28may22.tflite (tflite, 64376 bytes, 6 tensors)

dense_2/bias f4 [2]
00000000: 1dcf bebe 1ecf be3e
-0.3726739 0.37267393

dense_1/bias f4 [64]
00000000: 039f 87bc 3550 1bbc a862 19bc 7493 4dbd
00000010: 666b ed3b 58a3 0d3b 7901 a83b aae7 ddbb
00000020: 5da4 0c3e cbbe f0bb 57a4 2c3e 2362 3dbb
00000030: 1a37 073e 82e8 9abc aace b33d 22be 3f3e
00000040: f057 563e 39e4 91bd b953 83bd 6b2e 9fbb
00000050: d040 6cbc 94e0 1e3d 542c fdbc 9578 ef3d
00000060: 4721 263e ce3a f63d ce28 00bc fbb4 383c
00000070: 9cf6 2f3e d16a 39bc 07b6 0d3e 1fcc e23c
00000080: 6f2f 483e 6efa fa3d 2275 02b8 0dfd 58bc
00000090: 085a 83bc 9083 96bc c957 083e ce5f 1a3e
000000a0: 9aa3 51bc 665d 0e3e 4dd1 adbc 793b 223c
000000b0: 100b fdbc 96d0 263e 7fc0 a5bc ffb2 9abc
000000c0: 443e 2d3e a466 07bc f42c e33d a02b 16bc
000000d0: 6db4 dcbc 83ad 0d3e 5244 14bd 8878 733e
000000e0: cecb 3e3e 7421 003e 6740 323e ed61 3f3c
000000f0: 776d d33a 017f 243e 38bd 8d3a 7e0e afbb
-0.016555315 -0.009479572 -0.0093619 -0.05018945 0.007245469 0.0021612253 0.0051271287 -0.0067720013
0.13734575 -0.007346963 0.16859566 -0.0028897605 0.13204613 -0.018909696 0.087796524 0.18724874
0.20931983 -0.07123608 -0.06412453 -0.0048578284 -0.014419749 0.038788393 -0.030904926 0.11692921
0.16223632 0.12022935 -0.007822229 0.011273618 0.17183918 -0.011316971 0.13838969 0.027685223
0.19549344 0.12254797 -3.1103504e-05 -0.013243926 -0.016034141 -0.01837328 0.13314737 0.15075609
-0.012795353 0.13902816 -0.021217966 0.009901875 -0.030889064 0.16290507 -0.02023339 -0.01888418
0.16918284 -0.0082642175 0.110925585 -0.009165674 -0.026941502 0.1383572 -0.036197968 0.23776448
0.18632433 0.12512761 0.1740738 0.011681062 0.0016130646 0.16064073 0.0010813838 -0.005342304

dense/bias f4 [128]
00000000: c576 0bbd e172 14bd 60ab eabc fe92 8ebd
00000010: 64d1 b33c 086b 63bd ea2c dcbd 35d5 4abd
00000020: 1e2a 75bd 4a2e 87bd cfea 033d fcc7 16bd
00000030: bc8f 18bd 0333 203c 8794 adbd 1414 3bbc
00000040: a6bd 03bd 05df cebc f35e 193b 0ae5 003d
00000050: 69cf eabb 2710 18bd 0a40 87bd 7da5 ab3a
00000060: 23d9 55bd db0f 0c3d 1bdc 793c 72ff 15bd
00000070: e1dd 7fbd 42c2 c3bd 3ddf c9ba af36 a8bd
00000080: f9c7 afbc 6352 5dbd ec32 3ebd 8613 cdbc
00000090: f15f 4ebd 62fd cb3c ea7b 6dbd 75c4 39bd
000000a0: e6ca afbc 9f86 493c b876 883c ff1a bebc
000000b0: 6ca2 b0bc 16dd 71bd 5521 bcbc a75c d2bc
000000c0: 8104 96bd 7513 16bc 20fc 393d e1ea 37bd
000000d0: 583a a2bd 0dc6 a5bc c4d3 80bd 9f22 6dbd
000000e0: 020a de3c 1e44 083c abab cabc d947 8fbd
000000f0: f686 65bc d667 80bd bde4 e03c 0377 f8bb
00000100: f168 67bd f850 d3bc 0944 893b 924e 0dbd
00000110: acf5 38bd f8e0 a8ba 1ba0 ddbc 2797 233d
00000120: 999a 64bd 46a5 acbd 197a 09bd 18de 9cbc
00000130: 6478 7abd e907 75bd 5f8d 1b3d 600c 94bd
00000140: ce9f 70bc 19f2 30bd 4d69 80bd e1c8 4c3d
00000150: f72f 36bc 09b0 9abd b41e 113d 0b6c 94bc
00000160: eed4 95bd c38a 73bd 1975 d3bc 5f0b f4bc
00000170: 173d 9abd dac7 30bd 99fd 9abc 8161 49bd
00000180: bc62 003c 9334 40bd 1757 a13c 7e5e 62bd
00000190: 028d 0b3d d0c3 953c 509c 5b3c 8682 27bd
000001a0: 5325 7fbd d04a 58bd d5aa 2a3c 28e6 88bd
000001b0: eda4 51bd d1bd 6fbd affb 49bd f107 92bd
000001c0: f269 11bb 3cc9 853c fa24 303d 1956 11bd
000001d0: 4c8d 943c 37ed 5ebb b73b 15bd a3e6 763c
000001e0: ef35 94bd a9c8 c6bc 6e13 a9bc 96ec 7bbd
000001f0: 0a59 be3c 6cac 77bd c1b5 3fbd 9a0c 89bd
-0.034048814 -0.03624237 -0.028646171 -0.0696163 0.021950431 -0.055521995 -0.10750754 -0.049519736
-0.05985462 -0.06600626 0.032206353 -0.036811814 -0.03724645 0.009777787 -0.08475595 -0.011418361
-0.032163285 -0.025252828 0.0023402541 0.03146843 -0.0071658385 -0.03712478 -0.06604011 0.0013095584
-0.05220903 0.03419481 0.015250231 -0.036620565 -0.06246746 -0.09558536 -0.0015401613 -0.08213555
-0.02145766 -0.05403365 -0.04643528 -0.025033724 -0.050384466 0.024901096 -0.0579795 -0.04535337
-0.021459054 0.012300163 0.016658172 -0.023206232 -0.021561824 -0.059048735 -0.022965113 -0.025678946
-0.07325078 -0.009159912 0.04540646 -0.044901732 -0.079212844 -0.02023604 -0.06290391 -0.057894345
0.027104381 0.008317022 -0.02474006 -0.06996126 -0.014009228 -0.06269805 0.02745282 -0.0075825467
-0.056496564 -0.025795445 0.0041890186 -0.03449876 -0.045156166 -0.0012884429 -0.027053883 0.039939072
-0.0558115 -0.08429961 -0.033563707 -0.019148871 -0.06114997 -0.059821997 0.03797662 -0.07228923
-0.014686538 -0.043199632 -0.062700845 0.04999626 -0.011119834 -0.07553107 0.03542967 -0.018117925
-0.07316004 -0.059458505 -0.025812672 -0.029790578 -0.07531183 -0.043159343 -0.018919753 -0.049165253
0.00783604 -0.04692514 0.019694848 -0.055265896 0.034070022 0.018281847 0.013403967 -0.04089596
-0.062291455 -0.05280572 0.010416706 -0.06684524 -0.051182676 -0.058530632 -0.04931229 -0.07130421
-0.0022188392 0.016331308 0.043004014 -0.0354825 0.018133782 -0.0034015903 -0.0364339 0.0150696365
-0.072368495 -0.024265604 -0.020639148 -0.061504923 0.023235817 -0.06046717 -0.046804193 -0.06691857

situpdetector/dense/MatMul f4 [128, 34]
00000000: 18c6 4b3c 2440 983d 1ff1 df3c 478b 70bd
00000010: 85a9 863e fdc2 0c3e cae2 d53d db71 acbc
00000020: 6ad6 abbd df6c 6dbd ea42 95bb ce07 12be
00000030: f1f0 8c3e 5e9d 3d3e 32d9 87bc 0640 4d3e
00000040: 494f 203e ebc4 85bd 39ea 65bd 7c87 143d
00000050: 6f20 2abe 8de1 3bbd 44ea 1abe d4cb 143d
00000060: fab4 46be b85e 7a3d 15f7 fabe b864 e4be
00000070: 14bf 5ebd 63bf 9b3d b3e2 eebd 2ceb 413d
00000080: dca2 29be 0398 873e e8c4 50bd ac45 3c3e
00000090: 89ea 0abd f82c 293e df15 653d b50c 41bc
000000a0: ef4b 27be 57d2 fe3c 1a14 0e3e 0f75 6dbe
000000b0: d5d9 10bd 6006 35bd 818b 943d 7932 7abe
000000c0: 3d1b 9a3e 8216 933d 134f ec3e 57c6 273d
000000d0: 0836 75bd 54cb f73d aa44 a83d 4607 84be
000000e0: 8b26 b7bd 1676 fd3d 856c 263e 9358 8cbe
000000f0: 9d0f e5bd e0f8 383e 47ec 9e3e 6dc7 27be
00000100: 8f5d 90be ede6 503d d5de 6fbe 4490 b73b
00000110: 31ff a13d 9edb ea3d 5e97 29be 06b8 cd3b
00000120: 519e 9abc b183 70bd 1504 8ebe 7e46 a63d
00000130: 6716 61bd a007 9cbd 8030 b2be 4c4e b6bb
00000140: ec2f 3d3d ffc9 8abe c19e 8f3e 3a17 b43e
00000150: cb2b 713e bd1d 93bd 560d 173f 35d6 113e
00000160: 6606 1e3d 1ff8 5dbe ceb5 d7be 6722 88bc
00000170: 3943 823e 548c 28be 863e 13be 4e9e 9a3d
00000180: dc35 e0bd 7549 5cbe 7a97 91ba db34 bebd
00000190: 3f7b 1bbe 9f35 f5bc e95c 703d 9aa5 5cbe
000001a0: 08c3 773c ce73 f7bd 1f71 6c3c 48ac cc3d
000001b0: a231 f4bd 9194 8d3e abb5 6bbe 186b 12be
000001c0: bb01 4a3d 1507 da3d 2d6b 56be 5549 82bd
000001d0: c4fa 8e3c 559c f13d 6cc1 b9bd 0be6 af3d
000001e0: 118b a93d 6faa 39bc 16ff d5bd 83ab 7ebb
000001f0: cd7c eaba ce14 523e 08d4 023d 212c 3cbe
00000200: 17d6 a8be e56c 2d3c 4346 ff3e 3c6e 44bd
00000210: 7873 79be d37e 863e 07cc f4bd e1c7 d0bd
00000220: c1cf 2b3f dc0f 0c3e e8f5 243f cec3 313e
00000230: 3ead 863e 2bdc b0bc 0f5e 013f c188 5c3d
00000240: a268 0c3f b4f7 783e 65f2 24bc e375 46be
00000250: ec50 843e 36fb 183e bc27 4bbe 68aa 85bd
00000260: 81b9 e7bc 24b7 87be c956 cc3d a820 f6bd
00000270: 0868 c43e e653 203e 6122 623e ee62 b43d
00000280: 3846 ccbd 87ac d2bd e4ba 7e3d bd81 763d
00000290: eb05 b83e 87b2 b73e f7ef b6bd 99ad 133e
000002a0: cab0 a4bd ef4f 4f3e d91f 24be 69e2 043e
000002b0: d1f6 71bd 6233 b0bd fc9f 7f3a bab7 e0bb
000002c0: 35cb 133d afcc d73d 4f54 3b3d 837f 20bd
000002d0: 9c46 473d 6aab 073e e06b 473e 7d66 103c
000002e0: 28b5 073d a22e ca3d 4cd1 2a3c 7d64 2bbc
000002f0: 30ef c73d 6805 8fbd 25e8 d8bd 7a65 e1bd
00000300: d1e7 b23c 9318 983e e42a 6abe 76d6 e0bd
00000310: 5634 2a3c ab9f 833e 2fd4 ecbd 5eff 3e3e
00000320: 80f0 a6bc 73ea c63d 7db8 233e e0a1 af3d
00000330: faa8 c93c e35d 35be d072 22bd 1d70 183e
00000340: f030 a43d 6b86 443d b990 4fbe 07db 123e
00000350: 75dc 2abe 0d20 87be e2a8 6e3c 47c4 9a3c
00000360: d2ad 6ebe ed3e 573d 008a 2a3d cb98 183e
00000370: a3bd d93e de28 c33e bba6 93bc aff2 3cbe
00000380: 3c32 623e 6510 913d 736a 98bd f2d6 9d3e
00000390: 24af 563e ccfe 0bbc 09d0 013e a119 483e
000003a0: 1836 69be 557d 2f3e 4fe8 46be ed54 d83d
000003b0: f9eb b4be 447b 8e3e 7cae 5cbe d685 033c
000003c0: 2116 4fbe 46ff 46be 2d0b ccbd 1d0b 00bd
000003d0: 0e7d 4bbe 8ad7 863d 836c 04be c7fc c7bd
000003e0: 734d 1bbe 4c28 843e 163f 35be 90a2 aa3e
000003f0: bb69 733c f636 893d ffe7 a33e ba13 9b3d
0.012437366 0.07434109 0.027336655 -0.058726575 0.26301208 0.13746257 0.10443647 -0.021050384
-0.083905056 -0.057965156 -0.004555096 -0.1426079 0.27527574 0.18517062 -0.016583059 0.20043954
0.15655245 -0.065317 -0.056131575 0.03626202 -0.16613935 -0.0458694 -0.15128428 0.0363272
-0.19404975 0.061125487 -0.49016634 -0.44608092 -0.054381445 0.076048635 -0.11664333 0.047343418
-0.16566032 0.26483163 -0.050969034 0.18385953 -0.033915076 0.1652106 0.05592906 -0.011782815
-0.1633756 0.031106157 0.13874856 -0.23189186 -0.03536399 -0.044195533 0.07253171 -0.24433316
0.30098906 0.071820274 0.4615408 0.040960636 -0.05986598 0.12099329 0.08216222 -0.257868
-0.08942898 0.12376039 0.16252334 -0.27411327 -0.111846186 0.18063688 0.3103964 -0.16384669
-0.2819638 0.051001478 -0.23424847 0.0056019146 0.07910002 0.1146767 -0.16561648 0.006278041
-0.01887432 -0.05871934 -0.2773749 0.08118914 -0.054953005 -0.07618642 -0.34802628 -0.005563533
0.04618828 -0.27107236 0.28050807 0.3517397 0.23551862 -0.071834065 0.59004724 0.1424187
0.03858032 -0.21676682 -0.42130893 -0.016617967 0.25441912 -0.16459781 -0.1437932 0.075497255
-0.10947773 -0.21512397 -0.0011107766 -0.09287425 -0.15183733 -0.029932795 0.058682356 -0.21547547
0.015122183 -0.12082635 0.014431267 0.099937975 -0.11923529 0.2765241 -0.2301852 -0.14298666
0.049318057 0.10645882 -0.20939322 -0.06361643 0.017453559 0.11797396 -0.090700954 0.08588799
0.08278478 -0.011332138 -0.104490444 -0.0038859553 -0.0017889977 0.20515749 0.03194049 -0.18376209
-0.32975838 0.0105850445 0.49858293 -0.04795669 -0.24360454 0.26268634 -0.11952978 -0.10194374
0.6711388 0.13677925 0.64437723 0.1735985 0.26304048 -0.02158936 0.5053415 0.053841356
0.54847157 0.24313241 -0.010067557 -0.19380908 0.25842988 0.1493958 -0.19839376 -0.06526643
-0.028286697 -0.26506913 0.099774905 -0.120179474 0.3836062 0.15657005 0.22083427 0.08807932
-0.09974331 -0.10286813 0.06218995 0.06018232 0.35942015 0.35878393 -0.089324884 0.14421691
-0.08041532 0.20245336 -0.16027774 0.12976994 -0.059073273 -0.086035505 0.00097513176 -0.0068578394
0.036082465 0.10537087 0.0457347 -0.039184105 0.048651323 0.13248983 0.19474745 0.008813498
0.03313175 0.09872176 0.010425877 -0.01046097 0.09762418 -0.06983453 -0.10591153 -0.11005683
0.021839054 0.2970625 -0.22867924 -0.10978405 0.010388454 0.25707754 -0.11563908 0.18652102
-0.020378351 0.097126864 0.15988345 0.08575797 0.024616707 -0.17711596 -0.039660275 0.14886518
0.080171466 0.047979753 -0.20270051 0.14341365 -0.1668566 -0.2639164 0.014566632 0.01889242
-0.23308495 0.052550245 0.041635513 0.14902036 0.42527494 0.38117117 -0.01802384 -0.18451951
0.22089475 0.07083205 -0.074421786 0.30828053 0.20965248 -0.008544635 0.12677015 0.19541027
-0.22774541 0.17137654 -0.19424556 0.10563073 -0.35336283 0.2782842 -0.21550936 0.008027514
-0.20223285 -0.19433317 -0.09963069 -0.0312606 -0.19871923 0.065840796 -0.12932019 -0.0976501
-0.15166263 0.25811994 -0.17699847 0.3332715 0.014856751 0.06699936 0.32012936 0.07572122

situpdetector/dense_1/MatMul f4 [64, 128]
00000000: c8c4 9c3d 776e ae3e 4d83 2c3d 47e6 503e
00000010: c98e 163e 19c9 aebd db13 663e e9e7 223e
00000020: 6c52 b93e 5750 3cbe 67fa 993e 5fb6 28be
00000030: 4517 aebd 7016 803e 07fc 753e 75ad fc3e
00000040: 57f4 35be 7563 c6bd 5abd e2bd 0109 ea3e
00000050: 3398 aabe 7ce3 08bd 2b27 fabd 540f d63e
00000060: 8372 643e 32b4 063e d4cf 893e 8381 5abd
00000070: 8bfe 8b3e 09aa 6abe 6d50 9bbc cfd6 813d
00000080: 5531 91be 45d7 a63d 4e6a 893e 6dbd 693e
00000090: d47a e93d 4c2b 083e 111e bb3c e41e afbd
000000a0: 7303 18be fab6 0f3f bc3e 07bd aa30 debd
000000b0: a1a8 0fbd 79f7 453e 578a 08be bf77 0abe
000000c0: fee6 65bd db6b 92be 3f8c a83e dd3a 983d
000000d0: a38b e6bd f82d b63e 6735 a9bd 0de7 113e
000000e0: 4783 243f bddc 1d3f d60d 903e a34a a33d
000000f0: dc76 c1bd 7257 34be 0858 8b3d 280e 803e
00000100: 243e bd3e d347 413d 452e f63e 0a8d 8f3e
00000110: fad5 f03d a435 893e 0a7c bc3d e9c2 2e3e
00000120: fc03 ac3e ab73 41be 74c4 d93d 4dcb 123e
00000130: 213c 973d 236a 943e 415a 903d e115 7e3e
00000140: 3682 833d 0130 c9bd 8ea7 d03d c0aa ab3e
00000150: 11ed 583e 28c8 b6bd b479 f73e 1b7d 67be
00000160: 35b4 be3e b7e1 633e 37e2 52be 35b6 8e3c
00000170: 29a7 943e b240 04be 81c7 75be 6610 9c3e
00000180: 32eb 473e 067d 8a3e a154 03be 2842 5e3e
00000190: 186e b53d 3aa8 f53d 2a15 2a3e 7233 c2bc
000001a0: ec04 733e dbf6 aabd 2fea 703e 00db c03e
000001b0: 8c9f 7c3e 1108 f2bd 0291 91bd 96af a5bb
000001c0: 80a4 813e 4a70 e53e 5649 e83e 1e8f 273a
000001d0: 192e 3d3e e0d5 18be 4ca4 8e3b 4657 963e
000001e0: 3e7d bebd f29a 0f3e 7220 173f 6d9d 86be
000001f0: 109f f73e a9ff e5bd 8a1d 443e 48ea 943e
00000200: 1d0c bb3e 71a5 ae3d b773 3ebd f4d6 393c
00000210: 5b41 0d3e 8f92 0f3e a384 c63e a0ae ae3d
00000220: 070d 853e 8468 31be e64b 323e b8b8 b4bd
00000230: 1c42 33be 0799 b53e 8858 673e e07b 813e
00000240: 4f8d 80be 284d 9abc 45d7 10be 544a 283e
00000250: 335b 42be a53a 853d 4476 723d 9178 623e
00000260: 7489 f63c f645 803e e3d8 c93e 85e7 9bbd
00000270: 1144 4f3e 0b25 37bd 7d66 e5bd 93b6 943e
00000280: cad5 a9be 1b77 1ebd da14 2a3e a701 f03d
00000290: 2627 ae3e 47f2 923e bd21 ba3e 6604 373d
000002a0: 52cb b9bd 5035 003f dabf 853e 3d03 99bc
000002b0: f6da 683d 92e8 41bc aa8d ddbd bf5c 283d
000002c0: 6ad3 cd3d cfea a5bd ebd2 8b3e 50e5 423d
000002d0: b41e 8bbc 3aea b63d f6fa 77be 5fa3 c13d
000002e0: 3583 873e e4bf 383f 8722 b53e e63b f43d
000002f0: 15bf dd3d c192 aabd 48d7 553e ccaa 6c3e
00000300: 3b5c 8f3e f211 963e 6837 913e 6e1c de3e
00000310: 5baf 783e 9f67 893e e995 953e d55e b63e
00000320: a44b 953e 87fa adbe b546 283d 8f2f f23d
00000330: 6512 013e 19e3 9c3e 3047 4e3e 0604 423e
00000340: 9122 8c3e b006 cabd 507b 9e3e 1aab 403e
00000350: a29d f43d 0da2 eabc 57ed b53e 727b 15be
00000360: f507 653e 4b94 af3e 569e b6ba c08e 7f3e
00000370: 676b 3f3e 8220 1cbe 9ef7 3fbe b313 a13e
00000380: bdda 353e d51b 1d3e bca0 64be 5daf b83e
00000390: 9b25 a33e b76b 833e 3dda b13e 69ee 1dbe
000003a0: d574 403e 1e24 44be d87d 233e fa20 3f3e
000003b0: af28 7d3e 237d be3d baa0 29be ec37 d33d
000003c0: 2af3 e03e 377e 203f 8ccd 1e3e bad4 a5bd
000003d0: 755f ad3e 3361 47bd 4716 14bd 351e 933e
000003e0: ca11 3dbd 484d b63c 8696 d93e 627f 8cbe
000003f0: 2490 cd3d 5000 d4bd caef 0b3d 6d58 413e
0.076547205 0.34068653 0.042117406 0.20400344 0.14702906 -0.0853445 0.22468512 0.15908779
0.36195695 -0.18390022 0.30073854 -0.16475819 -0.08500532 0.25017118 0.24021922 0.49351087
-0.1776899 -0.09686939 -0.11071272 0.45709994 -0.33319244 -0.03342007 -0.12214502 0.4180857
0.22309308 0.13154677 0.26916373 -0.05334617 0.27342638 -0.22916426 -0.018959248 0.063397996
-0.2835795 0.08146528 0.26838917 0.22826166 0.11400381 0.13297766 0.022841485 -0.08550814
-0.14845066 0.56138575 -0.033018813 -0.10849126 -0.035072926 0.19332685 -0.13334022 -0.13522242
-0.056128494 -0.28597912 0.329195 0.07433102 -0.11257102 0.35581946 -0.08262139 0.14248295
0.64262813 0.61664945 0.28135556 0.0797322 -0.09446499 -0.17611483 0.068039 0.250108
0.36961472 0.047187638 0.48082176 0.28037292 0.11759563 0.26798737 0.09203346 0.1706654
0.3359679 -0.1889178 0.106331736 0.14335366 0.073845156 0.28987226 0.070484646 0.24813034
0.0642132 -0.09823609 0.101882085 0.3352871 0.21184184 -0.089248955 0.4833504 -0.22606318
0.37246862 0.22254072 -0.20594107 0.017420867 0.29033783 -0.12915304 -0.24001886 0.3048126
0.19523314 0.2704851 -0.12825252 0.21704924 0.08858889 0.11994977 0.16609636 -0.023706172
0.23732346 -0.08347865 0.23526834 0.37667084 0.24670237 -0.11817945 -0.07107736 -0.005056332
0.25320816 0.44812232 0.4536845 0.00063918706 0.18474616 -0.14925337 0.004353082 0.2936346
-0.09301232 0.1402395 0.5903388 -0.2629198 0.48363543 -0.11230404 0.19151893 0.29084992
0.3653268 0.08527649 -0.046497073 0.011342753 0.13794462 0.14020751 0.3877307 0.08529401
0.25986502 -0.17325026 0.17411765 -0.08824295 -0.17505687 0.35468313 0.22592366 0.25289822
-0.2510781 -0.01883562 -0.14144619 0.16434604 -0.18980102 0.06505326 0.05919482 0.22116305
0.03009484 0.25053376 0.39423284 -0.07612518 0.20240809 -0.04471306 -0.11201189 0.29045543
-0.3317092 -0.038687807 0.16609517 0.11719065 0.34014243 0.28700468 0.36353865 0.04468193
-0.090719834 0.5008135 0.26122934 -0.018678302 0.056849442 -0.011835234 -0.10818036 0.041104075
0.1005009 -0.08101427 0.27309355 0.04758197 -0.016982414 0.08931394 -0.24216828 0.09454989
0.2646729 0.721678 0.35377905 0.11925487 0.10827462 -0.08328772 0.20882905 0.23112029
0.28000054 0.29310566 0.28362584 0.43381065 0.24285643 0.2683687 0.29215935 0.35619226
0.29159272 -0.339802 0.041083056 0.11825477 0.12604673 0.30642012 0.20144343 0.18946847
0.27370122 -0.09864557 0.30953455 0.1881527 0.119441286 -0.028641725 0.35532638 -0.14597872
0.22366317 0.34292826 -0.0013932686 0.24956799 0.18693314 -0.15246776 -0.18746802 0.31460342
0.17759223 0.15342648 -0.2232694 0.36071292 0.31864628 0.25668117 0.34736815 -0.15422978
0.18794568 -0.19154403 0.15965974 0.18664923 0.24722551 0.09301212 -0.16565219 0.103134006
0.4393552 0.6269259 0.15508097 -0.08097215 0.3386189 -0.04867668 -0.036154058 0.28733984
-0.046159543 0.022253647 0.42497653 -0.27440935 0.10037258 -0.10351622 0.034164228 0.18881388

situpdetector/dense_2/MatMul f4 [2, 64]
00000000: 5948 403f 6255 b13e 1f46 e13e 043a 1a3f
00000010: 9802 383f 3363 193f a3de 403f 39bd f33e
00000020: 1025 3fbf 91e2 253f ef1a 20bf b2fb 283f
00000030: 7012 c9be d4b4 2e3f dac9 00bf 47b1 fcbe
00000040: b4f3 04bf c92f d23d 714a 3b3f da95 1e3f
00000050: 40a9 153f dd25 f53e 0bfc 193f 2e92 bdbe
00000060: 9edd e9be bbd0 08bf ca75 0a3f 49a8 9e3e
00000070: f702 1abf 7c7e 1c3f 68d9 34bf 70c9 4ebe
00000080: ec55 d8be 6008 3abf 7dfe 9d3e 2c75 533f
00000090: 5d77 233f c69d 343f cf92 21bf e9d5 dfbe
000000a0: b834 2f3f 1632 e1be 0786 fd3e e640 463f
000000b0: 6a6c 073f 5716 0cbf 680b 0f3f ad29 d83e
000000c0: 47df 27bf 1bd3 2c3f 5b3d 01bf 769d 253f
000000d0: 44a2 203f db04 3abf 5b08 123f 3859 b4be
000000e0: 69d4 33bf ff58 10bf dd2f 42bf d301 313f
000000f0: dcd2 1c3f eb42 f9be edc6 193f 74af 213f
00000100: 090b 9ebe 0596 29bf 488d 28bf 2035 7ebe
00000110: fec4 b1be a794 e1be 7c3a f3be 1755 2abf
00000120: 3e62 dc3e 57cf 40bf c2ac d43e 1d6d 40bf
00000130: 93cb 413f bfc8 e4be a019 d33e b918 fe3e
00000140: 003b 113f 83a2 4e3e 463e 9dbe ebce 39bf
00000150: 0c56 b8be 287c e9be e56e 8cbe 0cdd c33e
00000160: 43ca 233f e620 303f 1128 21bf 0d5b 49bf
00000170: c77f eb3e d24b e0be bc7f 3b3f 1239 663e
00000180: 412c 2a3f 4bd7 3f3f ecf2 3cbf a06c a4be
00000190: 3c04 02bf 9b2a 50be 371e 133f d601 323f
000001a0: 250e 96be 1a45 303f 70f3 31bf a030 44bf
000001b0: f17f a2be d3be 0b3f 1005 17bf 6a65 22bf
000001c0: 1889 d33e aa99 33bf b5fa 183f c4d9 28bf
000001d0: 1bff d1be 5ec1 393f 1df8 a5be c57f 303f
000001e0: 9f8b 2d3f 7d54 263f 484f be3e bef3 2cbf
000001f0: 4551 39bf 7b0a 043f 0a0b 0bbf 61cb 36bf
0.75110394 0.34635454 0.4399881 0.60244775 0.7187896 0.5991699 0.75339717 0.47605303
-0.7466593 0.6479884 -0.625411 0.66009057 -0.3927188 0.6824467 -0.50308 -0.49354002
-0.5193436 0.102630205 0.73160464 0.61947405 0.5846138 0.4788045 0.6015021 -0.3702559
-0.45676893 -0.534435 0.5408598 0.30987766 -0.60160774 0.611305 -0.70644236 -0.2019403
-0.42253053 -0.7266903 0.30858222 0.82600665 0.6385401 0.70553243 -0.6311464 -0.43717888
0.6843982 -0.43983525 0.49516317 0.7744278 0.528998 -0.5472159 0.5587678 0.42219296
-0.6557507 0.6750962 -0.50484246 0.6469339 0.627476 -0.7266366 0.57044 -0.35224319
-0.7024599 -0.563858 -0.75854284 0.6914341 0.61259246 -0.48683867 0.6006916 0.63158345
-0.30867794 -0.66244537 -0.6584058 -0.24824953 -0.34720606 -0.44058725 -0.47505558 -0.66536087
0.43043703 -0.75316375 0.41538054 -0.75166494 0.75701255 -0.44684407 0.41230488 0.49628237
0.5673065 0.20179181 -0.30711573 -0.72581357 -0.3600315 -0.45602536 -0.27428356 0.38254583
0.639805 0.688002 -0.6295176 -0.7865456 0.45995924 -0.43807846 0.7324178 0.22482708
0.66473776 0.74937886 -0.7380817 -0.32114124 -0.5078771 -0.20328753 0.5746798 0.6953405
-0.29307666 0.6885544 -0.6951208 -0.76636696 -0.31738237 0.5458805 -0.589921 -0.63435996
0.41315532 -0.7015635 0.5975755 -0.65957284 -0.41014943 0.7256068 -0.32415858 0.6894496
0.6779117 0.6497267 0.37169862 -0.6755942 -0.7238963 0.5157849 -0.5431372 -0.7140408
